D20210406/net.pth (torch_old, 179222 bytes, 10 tensors)

conv1.weight f4 [6, 1, 5, 5]
000000 02 57 b3 3d b7 5b a9 bd b4 c5 95 bd e0 d8 20 3c
       0.0875683 -0.08269446 -0.073130995 0.009817332
000010 f0 94 bc bc 82 93 d4 3d ed 0d f0 bd f2 3e c7 3d
       -0.023020238 0.103796974 -0.11721406 0.09728803
000020 82 24 a3 3d a8 38 88 3c 2f 5d 2b 3e a2 ff ae 3d
       0.07965948 0.016628578 0.16734765 0.08544852
000030 58 be 0b be 7c 97 8e bd a3 5a 22 3e 98 8c 1a 3d
       -0.13646829 -0.06962487 0.15854888 0.037731737
000040 50 4f bc bd ec e1 61 3d a6 31 ed 3d da e1 9d 3d
       -0.09194815 0.055147097 0.11581735 0.077090934
000050 9f 16 1d 3e c8 72 74 bd b8 74 3f be 90 78 fd bd
       0.1534066 -0.059679776 -0.18696868 -0.12376511
000060 80 7b f8 bd 54 d4 53 bd b2 f6 9d 3d 27 0c 41 3e
       -0.12132931 -0.051716164 0.07713069 0.18852292
000070 a0 ae d2 bd 50 ca 85 3c d4 f7 13 bd c8 16 23 bd
       -0.10287213 0.016331822 -0.03612502 -0.039816648
000080 d8 5f 9a bc 59 0a 04 3e 00 47 87 ba 3d e8 f5 bd
       -0.01884453 0.12894572 -0.0010320842 -0.120071866
000090 40 ba dd bd 91 f0 29 3e dd e5 02 3e a8 e8 0b be
       -0.1082654 0.16595675 0.12782998 -0.1366297
0000a0 20 a0 19 3c d2 7c e7 3d 36 44 f1 3d d7 59 45 3e
       0.009376556 0.113031045 0.11780588 0.19272552
0000b0 fb 62 4b be 98 ab f6 3c 58 79 44 be b0 79 2c be
       -0.19861977 0.03011112 -0.19186914 -0.16843295
0000c0 ea d1 ee 3d 55 0c 10 be 53 65 bd bd 16 51 23 be
       0.11661132 -0.14067204 -0.09247842 -0.159489
0000d0 e4 2e 5c 3d 34 2f 56 3d ce 38 d1 3d 80 47 7b 3c
       0.053755656 0.05229111 0.10215913 0.015336871
0000e0 a2 13 91 3d d8 a6 a7 3c 46 60 22 be 47 6d ea bd
       0.07083823 0.0204653 -0.15857038 -0.11446624
0000f0 0e 63 ef 3d 50 4b 0b bc 3b 00 34 3e a9 96 12 3e
       0.11688815 -0.008501843 0.17578213 0.14315285
000100 a0 0d 60 bc 9b e6 03 3e 03 34 9a bd a2 02 b5 3d
       -0.013675123 0.12880938 -0.07529452 0.08838393
000110 7f f7 3c be 22 22 ca 3d 93 27 a6 bd 66 ed aa 3d
       -0.18453787 0.098697916 -0.08113017 0.083460614
000120 15 45 23 be e7 f8 20 3e 05 08 09 be a0 28 c3 bb
       -0.15944321 0.15719949 -0.13381965 -0.0059557706
000130 a0 98 2b be 6d 0f 22 be 5a 4e 38 be c9 7c 11 3e
       -0.1675744 -0.15826197 -0.17998639 0.14207758
000140 40 54 5a bd cc 61 5e bd 38 1f 56 bd 98 20 c3 3c
       -0.053303003 -0.054292485 -0.052275866 0.023819253
000150 5d 62 2f 3e 11 8a 18 3e 30 a7 9c bc b4 37 34 bd
       0.17127366 0.14896418 -0.01912269 -0.043998435
000160 fa 62 17 be 93 a0 b9 bd af 9a 47 be d2 1a ff 3d
       -0.1478385 -0.0906383 -0.19492601 0.124562874
000170 5a 25 07 be 2d df 49 be cd 86 fa bd 58 90 ad 3c
       -0.13197842 -0.19714041 -0.122327425 0.021186993
000180 df 00 3b 3e 30 44 e9 3c 5d da 2a 3e 68 53 38 be
       0.18262051 0.028474897 0.16684861 -0.18000567
000190 a4 4a 4d 3d 08 cc 35 3d ad b3 d7 bd e4 ec 65 3d
       0.05012001 0.044384032 -0.10532317 0.05613412
0001a0 d2 60 f1 3d 72 db d4 3d 83 3b d5 bd 68 12 28 be
       0.11786045 0.10393418 -0.104117416 -0.16413271
0001b0 f4 03 19 3d 5d 36 fc bd 02 d0 be 3d 5f e3 3d be
       0.037357286 -0.123150565 0.09317018 -0.18543766
0001c0 18 4c 22 3d 1b 0c 49 3e 1e bd e8 3d 01 0e 36 3e
       0.03962335 0.19633524 0.11364196 0.1777878
0001d0 cf ff 3c be d0 38 97 bd b8 db 10 be 03 bb 24 be
       -0.18456958 -0.07383883 -0.14146316 -0.16086964
0001e0 79 ec 06 3e b9 49 1d 3e e2 63 83 3d 33 0b f4 bd
       0.13176145 0.15360154 0.064155355 -0.119161986
0001f0 4c a7 43 3d e3 08 45 3e 9c ca 00 be b4 f3 4e 3d
       0.04776697 0.19241671 -0.1257729 0.050525382
000200 00 84 d8 3c 9d 54 dd bd 60 76 c4 bd c6 0a d5 3d
       0.02643013 -0.10807154 -0.09592891 0.104024455
000210 8d e8 1d 3e 15 37 02 be c2 27 35 be c8 85 15 be
       0.15420742 -0.12716325 -0.17690948 -0.14601815
000220 98 a9 8f 3c d4 e1 00 bd 24 4c 76 3d 58 91 a7 3c
       0.017536923 -0.031465366 0.060131207 0.020455047
000230 10 ba b5 3c 02 12 82 3d 93 08 f6 bd 3d 1a 24 be
       0.022183448 0.06351091 -0.12013354 -0.16025634
000240 54 cd 0d 3d 5d 8c 2e 3e fd bf 25 3e de dc e0 3d
       0.034619644 0.17045732 0.16186519 0.10979627
000250 03 7c e2 bd d8 d2 13 bd
       -0.110588096 -0.03608975

conv1.bias f4 [6]
000000 58 ef cb bc fd 58 36 3e b8 20 59 bd 12 5c a2 3d
       -0.024894401 0.17807384 -0.05300972 0.07927717
000010 7b 1b 35 be ba f5 9f bd
       -0.17686264 -0.078105405

conv2.weight f4 [16, 6, 5, 5]
000000 ac a0 fa bc 30 f1 e3 bb 80 c0 a2 3d f0 56 93 bb
       -0.030594192 -0.006956242 0.07946873 -0.0044964477
000010 67 d1 36 bd 20 cb 79 3c f8 79 23 3c 72 e4 f4 bc
       -0.044633295 0.015246183 0.00997781 -0.029894087
000020 84 f1 38 bd 68 e4 73 3d 68 9a 44 3d 8e bf 9f 3d
       -0.045152202 0.059543997 0.047998816 0.07800208
000030 91 9b 37 bd 5c 92 56 bd 04 5e 8f 3d fe 5e 70 bd
       -0.044826094 -0.052385673 0.07000354 -0.05868434
000040 4c 0d 49 3d 68 55 3b 3d 4d bc 5c bd e0 bd 66 bd
       0.049084947 0.045735747 -0.053890515 -0.056333423
000050 fe 9b 09 bd 08 06 43 bc 84 cb 95 3d 3a 2b a6 bc
       -0.03359603 -0.011903293 0.07314208 -0.020284284
000060 c0 10 25 3d 48 43 d6 3c dc 03 64 3d f0 c2 30 bc
       0.040299177 0.02615513 0.055667743 -0.010788664
000070 d4 49 78 3d e4 a9 a5 bd dc 88 33 3d 4a 37 63 bd
       0.060617283 -0.08089045 0.04383169 -0.05547265
000080 ed b6 24 bd 30 ed 89 3d 82 0d a1 bc 86 08 8c 3d
       -0.040213514 0.06734693 -0.019659761 0.06837563
000090 5b 74 64 bd 3e 61 16 3d 30 c1 30 bc c0 93 58 3d
       -0.055775028 0.03671383 -0.010788247 0.05287528
0000a0 e0 bc 9e 3b 5a b3 84 bd 80 03 20 bb 0c 4b f4 3c
       0.004844293 -0.06479521 -0.0024416149 0.029820941
0000b0 b0 42 f8 3c b4 0a 05 3d 0a 76 33 bd 31 ab 95 bd
       0.030305237 0.03248091 -0.043813743 -0.07308043
0000c0 3c c7 d5 3c 9d 66 9b bd 20 45 e6 3b d8 2d 1a 3d
       0.026095979 -0.07587931 0.0070272833 0.037641376
0000d0 24 bf e6 3c 40 cf 96 3a c8 04 3e bc 14 5b 49 3d
       0.028167315 0.0011505857 -0.01159782 0.049159124
0000e0 40 d8 7c 3d 2c 12 4a bd 8e 79 82 bd ca 89 8f 3d
       0.06172967 -0.049333736 -0.06370841 0.07008703
0000f0 6c b5 ee bc 9c 53 39 3d 50 96 79 3d 8a 1c 96 3d
       -0.029139243 0.04524575 0.060934365 0.07329662
000100 04 49 91 bc f5 8b 8d bd 44 be a6 3d 39 52 a5 bd
       -0.017735012 -0.0691146 0.08141759 -0.08072323
000110 74 91 fe 3c e0 3e 70 3b 10 d7 94 bb f1 4d a4 bd
       0.031075217 0.003665857 -0.004542239 -0.08022679
000120 fa 92 46 bd c6 05 81 3d 88 70 7a 3d 4e 92 a4 bc
       -0.04848001 0.06299929 0.061142474 -0.020089295
000130 d3 7a 32 bd 00 6a d2 3b a8 8f 2d 3d a0 c7 d1 3b
       -0.043574166 0.0064213276 0.04237333 0.006401971
000140 50 8f 93 3d 8c ed 36 3d 16 71 a5 bd f4 d0 3f 3d
       0.07205069 0.044660136 -0.0807821 0.046830133
000150 18 06 36 3d d0 fc 79 3c f4 30 1e 3d 2a c6 fb bc
       0.044439405 0.015258029 0.038620904 -0.03073414
000160 94 77 46 3d 98 9c 7b 3d a0 8c 11 bb f4 2f 90 bc
       0.048453882 0.061428636 -0.0022209063 -0.01760099
000170 fa fc 53 bd 96 ae 87 bd 0c 27 67 3d 78 79 12 bc
       -0.05175493 -0.066250965 0.056433722 -0.008940093
000180 a0 e1 7d 3b 56 47 8f 3d ac 0c de 3c c0 e2 05 3d
       0.003873922 0.06996028 0.027105652 0.03268695
000190 38 25 c6 3c 24 c7 71 3d 68 5a 7c 3c b8 85 9b bc
       0.02418767 0.059027806 0.015402414 -0.01898466
0001a0 2e 48 86 3d 08 3c 7c bd de 31 ee bc ac 18 ae bc
       0.06556736 -0.061580688 -0.029076513 -0.021251999
0001b0 82 72 9a 3d 95 58 13 bd d1 7d 94 bd f8 5b 8a bc
       0.07541372 -0.03597315 -0.0725056 -0.016889557
0001c0 d8 55 94 3c 14 fe 8c 3d 00 f3 68 3b 3e 4b 1b 3d
       0.01810734 0.06884399 0.003554523 0.037913553
0001d0 34 f8 88 3c ee ee 55 bd e0 0c ad 3b 66 3a 8f bd
       0.016719915 -0.052229814 0.005281076 -0.069935605
0001e0 b2 d1 ba bc e5 59 80 bd 90 4e 2a 3d 68 4d 3b bd
       -0.022805069 -0.06267146 0.04157883 -0.045728117
0001f0 23 0a 8a bd a0 55 d1 3b 4e 96 88 3d 0e 2f f2 bc
       -0.06740215 0.006388381 0.06669293 -0.029563453
000200 98 0a 2b 3d 98 2b 51 bd ec b4 28 3d f0 e3 8e 3d
       0.04175815 -0.051066965 0.041188166 0.069770694
000210 50 58 48 3c 64 99 86 3d a0 07 4d 3b ce 8e 86 bd
       0.012228087 0.06572226 0.0031285062 -0.065702066
000220 00 25 f6 3c cc 10 55 3d 30 b2 1a bd 54 d6 86 bc
       0.03004694 0.052017972 -0.03776759 -0.016459621
000230 a2 d8 99 bd 46 93 98 bd c0 ab 87 3d 20 d5 ee bc
       -0.075120226 -0.07449965 0.066245556 -0.02915436
000240 1b 81 38 bd ed 6a 99 bd 4e d9 45 bd df a1 87 bd
       -0.045045 -0.074910976 -0.04830294 -0.06622671
000250 d8 d6 70 3d 8d 03 a1 bd 90 29 3d 3d 89 00 2f bd
       0.05879864 -0.078620054 0.046182215 -0.04272512
000260 4c 47 3e 3d 08 aa 56 bc 38 41 3b 3d d2 eb 81 bd
       0.046454713 -0.013102062 0.045716494 -0.06343807
000270 80 b7 16 3d e0 30 46 bd 40 ca 91 3b 3a db a3 3d
       0.036796093 -0.048386455 0.004449159 0.080007985
000280 74 b1 30 bd b7 bc 9a bd 9a d3 57 bd f0 78 a1 3d
       -0.043137982 -0.07555526 -0.052692033 0.07884395
000290 0a c4 a5 bd 1c e4 fa 3c 0e 0b 8e 3d d8 7e 9d 3c
       -0.08094032 0.03062635 0.06935702 0.019225523
0002a0 9a 53 2a 3d 2c 98 a4 3d 67 fa 95 bd a0 b2 92 3d
       0.041583635 0.08036837 -0.07323151 0.07162976
0002b0 fb 9d 9e bd 0a e5 81 3d f6 71 03 3d 80 9c 8c 3c
       -0.07744976 0.06342514 0.032091103 0.017164469
0002c0 78 3f 35 3d 80 1a 9b bb 68 d4 54 3c ec 8b 6f 3d
       0.04424998 -0.0047333837 0.012990095 0.05848305
0002d0 20 f7 60 3b b6 8a d5 bc a0 05 38 3d 46 37 ca bc
       0.0034326985 -0.02606712 0.04492724 -0.02468456
0002e0 64 db 99 3d d8 cc f8 3c 56 96 d1 bc 4c 5d 53 3d
       0.075125486 0.030371115 -0.025584381 0.051602647
0002f0 00 d0 2c 39 50 cb bc 3c 3d 54 3d bd dc 40 d1 3c
       0.00016480684 0.023046166 -0.046222914 0.025543623
000300 d8 22 8f bd 9c 33 64 3d b6 40 a6 3d 30 18 c3 3b
       -0.06989068 0.05571328 0.081178114 0.005953811
000310 62 25 fa bc 4e bb c7 bc be 36 b5 bc b2 e6 88 3d
       -0.030535404 -0.024381306 -0.02212083 0.06684627
000320 c6 98 82 3d 38 12 59 3c 22 8e b0 bc 17 b5 29 bd
       0.063767955 0.013248973 -0.02155215 -0.041432466
000330 d9 d9 2b bd 10 bc 53 bc f3 89 98 bd 30 a3 55 3c
       -0.041955803 -0.012923256 -0.07448187 0.013039395
000340 d0 78 93 bb bc b6 4b 3d 06 42 42 bd 12 13 41 bd
       -0.004500486 0.049734816 -0.047426246 -0.047137327
000350 fd 16 07 bd 42 4f 9a bd 80 52 19 3c 45 79 28 bd
       -0.032980908 -0.075346485 0.009358048 -0.041131277
000360 8c 61 ca bc 02 bc a3 3d 64 2d 63 3d 98 46 47 bc
       -0.024704717 0.07994844 0.05546321 -0.012162827
000370 60 92 41 3b d9 8e 17 bd fc 64 b2 bc 70 f4 12 bc
       0.002953671 -0.037001465 -0.021776669 -0.008969411
000380 9c f2 8e bc a3 37 70 bd 83 ed 93 bd 3a 6a 28 3d
       -0.01744967 -0.05864681 -0.07223036 0.04111693
000390 e7 8e 34 bd 58 27 43 3d 3f 39 16 bd 38 a3 37 3d
       -0.044081595 0.047644943 -0.036675688 0.044833392
0003a0 b4 e0 42 3d 43 b3 47 bd 42 1e 45 bd 41 69 a5 bd
       0.047577575 -0.04875494 -0.04812456 -0.08076716
0003b0 80 f3 c0 ba 20 1b 37 bc f8 f2 47 bd 54 c7 2d bd
       -0.0014721006 -0.011175901 -0.048815697 -0.042426422
0003c0 80 6b 88 3d 40 e1 e9 ba 06 77 17 3d 82 20 9a 3d
       0.06661129 -0.0017843619 0.036978744 0.075257316
0003d0 48 64 18 3d 20 08 31 bc a8 55 6c bd dc 93 78 3d
       0.03720501 -0.01080516 -0.057698876 0.060687885
0003e0 a0 00 55 3b d5 07 71 bd 20 ec 43 3d 14 5b c9 3c
       0.0032501593 -0.05884536 0.04783261 0.024579562
0003f0 00 c6 90 bc cf a9 1f bd 88 96 dd 3c e8 2d 19 3d
       -0.017672539 -0.0389803 0.027049318 0.037397295

conv2.bias f4 [16]
000000 e2 b9 82 3d ea 2a 19 3d 60 61 7e 3c ef ac 2d bd
       0.063831106 0.03739444 0.015526146 -0.04240125
000010 76 d5 82 bd ec 64 76 3d 92 3d a5 3d 30 2c 8e 3d
       -0.06388371 0.06015484 0.08068384 0.06942022
000020 e8 fe 11 3d 47 c1 a4 bd 02 d0 ea bc 40 2c ff 3a
       0.03564349 -0.08044677 -0.028663639 0.0019468144
000030 ac 34 9d 3d 6d 93 7b bd 70 4e df bc da a5 9b 3d
       0.07676062 -0.061419893 -0.027259082 0.07599993

fc1.weight f4 [120, 256]
000000 0c 53 27 bd 8c 7c f5 3c 80 66 12 3b 84 f0 24 bd
       -0.040850684 0.029966615 0.0022338927 -0.040268436
000010 34 5c e4 bc d4 9c 49 3d b0 39 75 3d 74 94 7a 3d
       -0.027875997 0.04922183 0.05986947 0.061176732
000020 c0 69 d2 bb 66 50 44 3d 54 60 00 bd e0 27 cb bb
       -0.006421298 0.047928236 -0.031341866 -0.006199822
000030 24 7e 5b bd 10 77 e8 bb 20 97 7e 3b 5a d7 7c bd
       -0.053587094 -0.0070942715 0.0038847402 -0.061728813
000040 b4 ad e6 bc 48 2c b2 3c 70 d7 e2 bc ec b7 1a 3d
       -0.028159 0.02174963 -0.02769062 0.037773058
000050 e0 df 09 bb 46 fe 6e bd 70 66 48 3c da 44 3b bd
       -0.002103798 -0.058347963 0.012231454 -0.04571996
000060 e8 81 cc bc 72 21 22 3d 60 46 bf 3c 24 d8 18 bd
       -0.024964288 0.039582677 0.023348987 -0.037315503
000070 30 80 59 3d 44 3f e7 bc dc 48 f0 3c f0 14 f6 3b
       0.053100765 -0.02822841 0.029331617 0.00750982
000080 20 76 a4 bc 54 36 4c 3d b0 14 1f 3d 82 00 5a 3d
       -0.020075858 0.0498565 0.03883809 0.05322314
000090 70 d0 b7 bb 64 91 05 3d 98 61 07 3d 22 3c 4b bd
       -0.0056095645 0.03260936 0.033052057 -0.049617894
0000a0 00 7e 42 39 08 15 fe bc 60 0c 89 bc 28 52 67 bc
       0.0001854822 -0.031015888 -0.016729534 -0.014118709
0000b0 78 06 66 bd 60 89 05 bd 60 e2 7a 3d dc 9f 3b bd
       -0.056158513 -0.032601714 0.061251044 -0.04580675
0000c0 b4 15 7a bd 20 2c 1e 3d 44 56 bf 3c 90 ba bb 3b
       -0.061055854 0.0386163 0.023356564 0.005729027
0000d0 30 9a c8 bb f2 0d 4d 3d 9e 50 74 bd 9c 6f 90 bc
       -0.006121896 0.050062127 -0.059647195 -0.017631344
0000e0 a0 7e 4c bb b0 0f 96 bc 50 6b 13 3c 08 b4 7a 3c
       -0.0031203404 -0.018318027 0.008997753 0.015301712
0000f0 80 a0 bd bb b8 1c 41 3c 7c 86 33 3d b8 25 07 3c
       -0.0057869554 0.011786632 0.043829426 0.008248739
000100 ec 45 89 bc 44 b9 8e bc e0 f6 41 3b 54 05 b4 3c
       -0.016756974 -0.017422326 0.0029596612 0.021975197
000110 38 c5 d2 bc 48 cb 24 bd b6 02 33 bd 50 c1 36 3d
       -0.025728807 -0.040232927 -0.043703757 0.04461795
000120 8e ee 26 bd 0e 61 15 3d c8 6c a9 bc 6c 6d 1f 3d
       -0.040754847 0.03646951 -0.020681754 0.038922712
000130 d8 bd ad 3c 20 db 60 bb 70 c1 51 bd 6e 14 6f 3d
       0.021208689 -0.0034310296 -0.051209867 0.058369093
000140 6e cc 5a bd 70 fa fa 3b 04 a1 22 bd bc 04 89 3c
       -0.053417616 0.007659249 -0.039704338 0.01672589
000150 d8 4f 3c bd 90 8c c9 3b 90 ed 19 bd 6c fa b7 3c
       -0.045974582 0.0061507896 -0.037580073 0.022458278
000160 40 4a ca 3b 80 a6 4c bd 80 2b 77 bb 3a 3d 36 bd
       0.006173402 -0.049963474 -0.0037715137 -0.044491984
000170 9a 06 26 bd 2c 2d 80 3c 16 17 31 bd 0c b9 44 3d
       -0.04053364 0.01564654 -0.043234907 0.048028037
000180 de 98 08 3d 30 2b 10 3d 30 13 3a 3c e8 4a 49 3d
       0.03334891 0.035197437 0.011357114 0.0491437
000190 f2 63 2a bd f4 03 18 3d bc 9a c0 bc 2c f0 a6 bc
       -0.04159922 0.037113145 -0.023511283 -0.020378195
0001a0 d2 60 01 bd 18 2a 1e 3d 28 aa 1d bd 9c a9 00 3d
       -0.031586476 0.038614362 -0.03849235 0.031411752
0001b0 88 45 43 bc 88 3e 3d 3c e0 4a e2 3c 7c 06 ef 3c
       -0.011918433 0.011550553 0.027623594 0.029177897
0001c0 ac fd f6 bc 00 8f db 3c 00 96 14 3d 28 6a 61 bd
       -0.030150257 0.026801586 0.036275864 -0.05503288
0001d0 92 9e 32 bd 00 f9 30 bd 38 5a 1f bc e4 22 20 bd
       -0.043608256 -0.043206215 -0.0097261 -0.039095774
0001e0 82 e3 7d bd c4 0b d6 3c 80 cc 83 ba 18 92 ca 3c
       -0.061984546 0.026128657 -0.0010055453 0.024727866
0001f0 98 a3 42 bc 50 8d b9 3c 56 45 14 3d 20 f1 d7 bc
       -0.011879824 0.02265039 0.036198936 -0.026360095
000200 20 bf 21 3b 50 c8 37 3c a4 6c d9 bc ec d0 53 3d
       0.002468057 0.011217192 -0.026541062 0.051712915
000210 2e c0 08 3d f2 e9 26 bd 70 ac e1 bb dc 67 f5 bc
       0.0333864 -0.04075045 -0.006887011 -0.02995675
000220 1e f4 62 3d 74 76 3c bd 60 51 45 bd f8 3e 6e 3d
       0.05540859 -0.046011403 -0.04817331 0.05816552
000230 e0 2e 52 3d 58 df 7f 3c 00 65 8e 39 7e 86 4f bd
       0.051314235 0.015617214 0.000271596 -0.05066537
000240 ae fe 2f 3d 08 55 1a bc 7c 08 97 3c 1a 93 14 3d
       0.04296749 -0.009419687 0.018436663 0.0362731
000250 c6 7e 48 bd 80 bc fc bb 78 31 83 bc c8 6e 15 bc
       -0.048949026 -0.0077129006 -0.0160148 -0.009120651
000260 0e 31 20 bd 4c c0 a1 bc d8 f5 54 bd 84 e9 6c bd
       -0.039109282 -0.019745015 -0.051992267 -0.057839885
000270 c0 9f 0a bb b0 34 be 3c a2 f3 5f 3d 80 5e 2d bd
       -0.0021152347 0.023218483 0.054675706 -0.04232645
000280 84 a5 35 3d 8c e8 da 3c e8 48 48 bd 96 05 5a 3d
       0.0443473 0.026722215 -0.048897654 0.053227983
000290 e4 5f ad bc 10 db f1 3b a0 e7 2a bc ec 5b fe 3c
       -0.021163888 0.0073808506 -0.0104312 0.031049691
0002a0 6a 65 39 3d dc 28 a5 3c 40 d4 50 3b e0 4b 54 bb
       0.04526273 0.020161085 0.0031864792 -0.0032393858
0002b0 64 b9 26 3d c0 c4 3c 3c 64 04 5e bd d0 cd 6a bd
       0.040704146 0.011521518 -0.054203406 -0.057325184
0002c0 70 26 09 3d 26 d4 1f bd 7c de b7 3c 2c 75 bf bc
       0.033483922 -0.03902068 0.022444956 -0.023371302
0002d0 18 e1 8e 3c 96 ac 62 bd 80 c1 71 ba 50 c9 50 3d
       0.017441317 -0.055340372 -0.0009222254 0.050973237
0002e0 50 f1 69 bd 18 10 51 3d 88 3c cd 3c ba 83 77 3d
       -0.0571149 0.05104074 0.025053278 0.06042836
0002f0 ae 66 0d 3d 1a ea 58 3d 5a 59 05 3d 68 47 d9 bc
       0.03452175 0.05295763 0.032555915 -0.026523307
000300 02 cb 2f 3d 1c 2b bf 3c 0a 87 1d 3d 64 d0 e2 3c
       0.042918213 0.023335986 0.03845886 0.027687259
000310 10 c1 f5 bc 48 de 85 bc 72 e8 0e 3d 96 6b 55 bd
       -0.029999286 -0.016341344 0.034889646 -0.052104555
000320 70 57 ca bc 90 d1 55 3c a0 13 a1 3b 18 f2 e7 bc
       -0.024699897 0.013050452 0.0049156696 -0.028313681
000330 60 b7 4f bb 40 27 5e 3b 02 6c 4d 3d 00 f2 ad bc
       -0.0031694993 0.0033897907 0.050151832 -0.021233559
000340 30 93 cf 3c d8 dc b3 bc ce bd 14 3d 58 d2 4f bd
       0.02533874 -0.021955892 0.036313824 -0.05073771
000350 50 e6 8c bb 4c 5a 41 bd cc 79 3a bd 80 78 be bb
       -0.0042999163 -0.047205254 -0.04552631 -0.0058127046
000360 c0 a1 da 3b 54 ea 60 3d 8e 26 72 bd 1e 22 63 3d
       0.006672114 0.054910973 -0.0591188 0.05545246
000370 60 0a 72 bb 48 66 5b bd 00 d4 e8 b9 f2 79 2e 3d
       -0.0036932454 -0.05356434 -0.0004440844 0.042596765
000380 10 d6 2b 3d 80 7b 99 bb d0 ff 17 3c fc c8 cc bc
       0.041952193 -0.004683912 0.009277299 -0.02499818
000390 e4 37 53 bd 40 24 10 3b 30 00 9b bb 50 0d 6c bc
       -0.051566973 0.0021994263 -0.004730247 -0.014407471
0003a0 80 ce 90 3b 4c 99 e0 3c b0 ee c8 bb 38 20 5c 3c
       0.004419148 0.027416848 -0.0061319694 0.013435416
0003b0 d2 42 17 bd e8 9e 6d bc 30 25 47 bd 00 21 d0 bc
       -0.03692896 -0.014503218 -0.04861945 -0.02540636
0003c0 a2 a7 4b bd 20 51 30 bc 98 0e 39 bc a6 79 35 3d
       -0.049720414 -0.010761529 -0.011294983 0.044305466
0003d0 7a 70 5e 3d f6 d3 52 3d 10 0b 9d bc da fc 64 3d
       0.054306485 0.051471673 -0.019170314 0.0559052
0003e0 0a ca 2a bd 9a fb 76 3d 20 ce fd 3c 80 16 ce bb
       -0.041696586 0.06029854 0.030982077 -0.0062893033
0003f0 50 ac 42 bc 74 d1 09 3d 70 51 4f 3c 32 a4 2e 3d
       -0.011881903 0.033647016 0.012653694 0.042637058

fc1.bias f4 [120]
000000 8a 24 15 bd b0 b1 2e 3d 9e 54 09 bd fc 17 71 bd
       -0.0364118 0.042649925 -0.033527963 -0.058860764
000010 60 b2 fa bc ba 9a 03 3d c0 61 13 bb 40 83 56 bc
       -0.030602634 0.03212998 -0.0022488683 -0.013092816
000020 d0 6d 72 3d 52 7f 05 bd 1e e9 53 bd 4e 6b 45 bd
       0.059186757 -0.032592125 -0.05173599 -0.048198037
000030 40 3a b5 ba a8 48 74 bc 44 5b 7c bd 04 0c c3 bc
       -0.0013826564 -0.014909901 -0.061610475 -0.02380944
000040 bc 22 ac 3c 90 0c 61 3d 08 08 80 bc 78 a6 68 3c
       0.021012656 0.05494362 -0.01562883 0.0141998455
000050 10 dc ae bc f0 53 1f 3d c4 db ba 3c 00 a9 0b ba
       -0.021345168 0.03889841 0.02280987 -0.0005327612
000060 34 22 42 3d c4 70 4b 3d 5a 46 4e 3d b2 79 24 3d
       0.0473959 0.04966809 0.05036006 0.04015512
000070 54 22 1b bd 18 84 67 bd 80 3c 89 ba d0 39 02 3d
       -0.037874535 -0.05652246 -0.0010470301 0.031793416
000080 26 ec 5a bd 04 a5 b5 3c b8 43 4d bc 80 2a cd 3a
       -0.053447865 0.022173412 -0.012528352 0.0015652925
000090 e4 90 34 3d 96 8d 72 3d e0 83 49 3b 48 61 1e 3d
       0.04408349 0.059217058 0.003074877 0.038666993
0000a0 c0 27 3b 3c 50 d1 44 3d e8 4a 62 3d 9c a2 bb 3c
       0.011423051 0.04805118 0.055247217 0.022904687
0000b0 28 d9 61 3c c0 35 d1 3a 1e 77 02 3d 6a 2a 4d 3d
       0.013784684 0.0015961453 0.03185188 0.050089277
0000c0 60 77 cb bc 60 83 a5 bc 2a cf 00 bd 20 ad fb 3c
       -0.024837196 -0.020204246 -0.031447567 0.0307222
0000d0 42 d8 48 3d 14 db 47 3d 80 1b 45 3a 80 81 8c ba
       0.049034365 0.048792914 0.00075190514 -0.0010719746
0000e0 b0 1c 02 bc 54 23 34 3d 8c 78 2a bd 2c e2 30 bd
       -0.00794141 0.043979004 -0.04161887 -0.043184444
0000f0 28 02 dd bc c8 8e 9b bc 2a f1 46 bd 20 8b a4 3b
       -0.026978567 -0.018988982 -0.048569836 0.005021468
000100 50 36 54 bc 7a e8 54 3d 58 0f 27 3c f8 56 9f 3c
       -0.012952402 0.05197952 0.010196529 0.01945065
000110 48 42 38 3c cc 85 11 bd e8 53 01 3d 36 92 13 bd
       0.011246271 -0.03552799 0.03157416 -0.03602811
000120 fe f2 7a 3d 40 78 7e bb e8 fc b5 3c 80 11 49 3c
       0.06126689 -0.0038828999 0.022215322 0.012272239
000130 e0 80 f0 3b 94 9f 97 3c 88 69 ba 3c 3a 12 29 3d
       0.007339582 0.01850871 0.0227554 0.041277148
000140 12 20 1c bd a0 b6 f6 3b ce 03 35 3d 70 e1 91 3b
       -0.038116522 0.007529095 0.04419308 0.004451923
000150 40 0b 8d bb a0 bc 1f 3c a0 9e fe bc de e7 66 bd
       -0.0043043196 0.009749562 -0.031081498 -0.05637347
000160 a8 75 4d bd e2 8d 48 3d 20 1e 2f 3b aa e5 16 bd
       -0.050161034 0.048963435 0.0026720837 -0.03684012
000170 00 1e 1c b9 fc d6 28 3d a4 b8 6a bd 00 f4 f0 b8
       -0.00014888495 0.04122065 -0.057304993 -0.0001148954
000180 d8 8c 1f bc c0 9b 29 3b 26 cf 49 3d 58 9a fa bc
       -0.00973817 0.0025880188 0.049269818 -0.030591175
000190 9c dd e3 bc 8c 47 2a bd 90 a3 a2 3c 60 39 84 3c
       -0.027815633 -0.04157214 0.019853383 0.01614064
0001a0 a4 21 5e bd 2c 7e 33 3d 00 0c 4e bd 30 bc c9 bc
       -0.0542313 0.0438215 -0.050304413 -0.024625868
0001b0 a8 b0 41 3d b0 2d 55 3c c0 16 9d ba 00 cb af ba
       0.047287613 0.013011381 -0.001198493 -0.0013411939
0001c0 a4 5a 3c 3d aa b8 2f 3d dc 68 24 3d f6 2f 2d 3d
       0.04598488 0.04290072 0.040139064 0.042282067
0001d0 20 03 43 3d f8 76 82 3c 98 b9 ea 3c b0 0f a2 3c
       0.047610402 0.01592587 0.028652951 0.019782871

fc2.weight f4 [84, 120]
000000 13 5c b4 bd 5b 4d 18 bd 38 95 64 3d 7a c1 ab bd
       -0.08806624 -0.037183147 0.05580637 -0.08386512
000010 4e 19 a7 3d 20 af ca bb b8 4d 98 3d 88 6d dc bc
       0.08159123 -0.0061854273 0.07436699 -0.026907697
000020 a7 59 6f bd c6 94 87 3d 68 84 56 3c 6c ce e0 bc
       -0.05843511 0.06620173 0.013093092 -0.02744218
000030 00 32 3c bc 90 55 3a 3d 82 3f a4 3d c6 75 82 3d
       -0.01148653 0.045491755 0.08019926 0.0637012
000040 1d 81 33 bd f2 f6 74 bd 94 ca 88 bd 14 91 69 bd
       -0.043824304 -0.059805818 -0.06679264 -0.057023123
000050 8c 93 99 3d 58 50 a0 bd 98 ed 35 bc 94 02 36 3d
       0.074988455 -0.07827824 -0.01110401 0.044436052
000060 e8 43 aa 3d a0 d6 4c bb 35 d6 4d bd c0 d5 20 bb
       0.08313733 -0.0031255856 -0.050253112 -0.0024541467
000070 ec 39 f8 3c 60 9a 5e 3b d8 8d a0 3d b8 ee 9e 3d
       0.030301057 0.0033966526 0.078395545 0.07760376
000080 92 84 a6 3d bc a9 c2 3c db 7f 05 bd 18 0f e6 3c
       0.081307545 0.023762576 -0.032592636 0.02808337
000090 48 04 b7 bc 00 29 84 3c 0a 0d a2 3d 08 eb b3 3c
       -0.022340909 0.016132832 0.07912643 0.021962658
0000a0 da a5 ad bd 5c f6 24 3d 04 8f 72 3d a7 33 93 bd
       -0.08478899 0.04027401 0.05921842 -0.07187586
0000b0 60 9c 84 bd b0 63 32 3d 1c 95 b1 3c a0 43 59 bb
       -0.06475139 0.0435521 0.021677546 -0.003315188
0000c0 e0 f4 52 3b 2a a4 aa bd 30 80 24 3c e0 99 33 3c
       0.0032189414 -0.08332093 0.010040328 0.01096198
0000d0 56 ff a0 3d 7c 52 95 3d 1a f8 b2 bd 5a 99 a4 bd
       0.078612015 0.07291123 -0.08738728 -0.08037062
0000e0 14 ac a5 3d 1f 95 5f bd 08 c2 34 bd 80 f3 51 ba
       0.08089462 -0.054585572 -0.044130355 -0.00080090016
0000f0 6c 5c 61 3d 20 b4 51 3d 20 53 42 3c a8 4c 7b 3d
       0.05501978 0.05119717 0.011860639 0.061352402
000100 40 9e ec bb 5c 1a 5b bd 10 bc e4 bc 68 52 21 bd
       -0.0072210133 -0.053491935 -0.027921706 -0.03938523
000110 38 0a bc 3c 64 ec 9b 3d ce 2a 18 bd 0d eb 1a bd
       0.022954091 0.07613447 -0.037150197 -0.03782182
000120 ba c1 92 3d 5c b3 20 bd b8 d7 18 3d f4 68 b6 3d
       0.07165857 -0.03923355 0.0373151 0.08906737
000130 98 96 78 3d bd 0f 43 bd 90 cf 30 3c 06 e0 a4 bd
       0.060690492 -0.04762243 0.010791674 -0.080505416
000140 c2 a0 42 bd c6 7d b5 bd 70 c4 93 3d b5 51 1d bd
       -0.04751659 -0.0886188 0.07215202 -0.038408
000150 88 91 3c bc 40 4e b7 bd 12 99 b9 bd 5c 42 f4 bc
       -0.011509307 -0.08950472 -0.09062399 -0.029816799
000160 80 bd 05 3d 2d 9a b0 bd 18 05 af 3c cc 55 cb 3c
       0.032651424 -0.08623157 0.021364734 0.024821185
000170 6b 54 57 bd fc e1 af 3d c4 de e1 bc b6 25 f2 bc
       -0.05257074 0.08588025 -0.027572043 -0.029558998
000180 86 11 88 bd 16 e6 a9 3d f0 b6 a3 3c 8c a9 7a 3d
       -0.06643967 0.082958385 0.019984692 0.06119685
000190 d8 3e a0 3c f3 e8 39 bd 28 03 8e 3c b1 3f 86 bd
       0.019561216 -0.045388173 0.01733549 -0.06555117
0001a0 c2 d5 9d 3d 90 4e 6b bc 28 df 97 bd a0 c8 1f 3b
       0.07706787 -0.0143619925 -0.074156106 0.0024381056
0001b0 58 b0 96 bd 42 97 90 3d e8 09 d2 bc 5e 45 aa 3d
       -0.07357854 0.070601 -0.02563949 0.08314012
0001c0 58 8d 05 3c f8 ad a8 bc f6 c6 85 3d 18 e4 15 3d
       0.008151375 -0.020590767 0.065320894 0.03659448
0001d0 08 23 2c 3d 03 4b a1 bd 97 ab 32 bd 47 b3 9a bd
       0.042025596 -0.078756355 -0.043620672 -0.07553726
0001e0 1c b6 e0 bc dc c8 00 bd 3c 73 89 3d 78 82 43 3d
       -0.027430587 -0.031441554 0.06711432 0.047731847
0001f0 5f 74 80 bd 28 e7 02 3c b0 51 ad 3c 9c 17 80 3d
       -0.06272196 0.007989682 0.021157116 0.06254503
000200 a0 4f b6 bd 8e 49 29 bd 50 da c7 bb 51 e4 b9 bd
       -0.08901906 -0.041329913 -0.006099023 -0.09076751
000210 0a f5 91 bd 41 b7 64 bd 44 60 b6 3c 82 9e 9a 3d
       -0.071268156 -0.055838827 0.0222627 0.07549764
000220 28 65 af 3d 9c 32 67 3d 20 79 90 bc 94 f4 8b bd
       0.08564216 0.05644475 -0.017635882 -0.06833759
000230 a4 1e 20 3d bc b8 36 3d c7 aa 9d bd 7c ee ee bc
       0.03909172 0.04460977 -0.07698589 -0.029166453
000240 e0 f3 51 bd f9 96 8f bd 75 52 af bd 18 a6 a3 bd
       -0.051257968 -0.070112176 -0.08560649 -0.07990664
000250 d2 13 9f bd 54 f6 9e 3c de 47 99 3d f0 4b 6e 3c
       -0.07767452 0.019404568 0.07484411 0.014544472
000260 be 96 f5 bc a8 39 1e 3d f4 f2 55 bd ad c6 2a bd
       -0.029979106 0.038629204 -0.05223365 -0.04169338
000270 10 c7 5f 3d 21 80 79 bd e0 cb ba bc 14 d1 f0 3c
       0.0546332 -0.06091321 -0.022802293 0.029396571
000280 3f be 97 bd a0 aa 8d bb f8 60 96 3c ec 62 b9 bc
       -0.074093334 -0.0043233186 0.018356785 -0.022630177
000290 68 7b 62 3d c8 9a 04 bc 50 dc 1e 3d 9a 5b 08 bd
       0.05529347 -0.008093543 0.038784325 -0.033290483
0002a0 ca ba 32 bd 72 d6 4d bd 8f a4 a3 bd 88 39 09 bd
       -0.043635167 -0.05025334 -0.079903714 -0.03350213
0002b0 50 18 bc bb fc 2a b6 bc 60 04 06 bc 56 e8 af 3d
       -0.005740203 -0.022237293 -0.008179754 0.085892364
0002c0 10 78 8a bb 72 86 04 3d e0 31 56 3c 62 29 b4 3d
       -0.0042257383 0.03235478 0.013073415 0.08796956
0002d0 68 ba a8 bc 61 58 a1 bd 10 e9 e4 bc 34 69 ac 3d
       -0.020596698 -0.07878185 -0.027943164 0.084185034
0002e0 61 1c 54 bd a6 08 a7 bd b8 c7 a9 3d b1 56 5c bd
       -0.051784877 -0.081559464 0.082900465 -0.053793613
0002f0 6c 0e 97 bd 18 30 53 bc ec 1c b6 3d c2 b4 b9 3d
       -0.07375798 -0.012889884 0.08892235 0.0906768
000300 34 4a b4 3c 24 d3 47 3d 07 02 91 bd 58 47 b6 3d
       0.022008039 0.048785344 -0.07080465 0.089003265
000310 c8 1b 8d 3d 40 5a 80 bb 78 61 8d 3d ee 85 95 3d
       0.068900645 -0.0039170086 0.06903356 0.07300936
000320 db 1d 82 bd cc 5a a7 bc 5a 75 8d 3d df 73 55 bd
       -0.06353351 -0.020429038 0.06907149 -0.052112456
000330 00 9b a8 bb e0 a7 f1 3c d2 23 a7 3d 3f e5 96 bd
       -0.0051454306 0.029498994 0.08161129 -0.07367944
000340 60 81 4b 3b be 34 73 bd 7f df ba bd bb 79 92 bd
       0.0031052455 -0.05937647 -0.0912466 -0.071521245
000350 ac a6 3e 3d 00 db 1d bc 3d a8 67 bd c8 35 4f bc
       0.04654567 -0.009634733 -0.05655693 -0.0126471
000360 6f bd a3 bd 43 33 2e bd d0 1d 30 3d e6 aa 8f 3d
       -0.07995116 -0.042529356 0.04299718 0.07015018
000370 5a c0 05 3d 72 c5 95 3d 79 bf b5 bd e8 03 88 bc
       0.032654144 0.0731305 -0.08874411 -0.016603425
000380 c0 1e f0 3b 60 2b 8b 3d 2e 3c ba 3d 48 98 14 3c
       0.0073278844 0.067953825 0.090935096 0.00906951
000390 00 b3 08 bc 88 9a fa 3c 79 9b 14 bd f0 73 61 3c
       -0.008343458 0.030591264 -0.036281083 0.013760552
0003a0 60 c9 5e 3b ca 1b 8f 3d ee ac fd bc e5 a0 4d bd
       0.003399454 0.06987722 -0.030966248 -0.05020227
0003b0 38 35 d5 3c 76 5f 9b bd 64 c1 bc bc 07 85 09 bd
       0.026026353 -0.07586567 -0.023041435 -0.03357413
0003c0 38 6d 8b 3d b0 75 9d 3c d9 bf 95 bd 60 60 16 3b
       0.06807941 0.019221157 -0.07311983 0.0022945628
0003d0 8f 34 29 bd 5e 1c 7b bd d6 c5 8e bd 9e 0e a7 3d
       -0.04130989 -0.06130635 -0.06971328 0.08157085
0003e0 56 26 6b bd c8 d6 1a 3d 9c 76 b6 3d 40 d7 fd 3b
       -0.057409607 0.037802488 0.08909342 0.007746607
0003f0 10 d1 40 bd 03 16 9d bd 2c 3b 9c 3d 1c a0 5b 3d
       -0.047074378 -0.07670214 0.07628474 0.05361949

fc2.bias f4 [84]
000000 88 90 97 3c 64 12 a2 3d 7d 59 6a bd 68 80 fc 3c
       0.018501535 0.07913664 -0.05721425 0.030822948
000010 ca 64 a6 bd 7b a0 5e bd 6c 4e 1a 3d 44 c3 83 bc
       -0.08124693 -0.054352265 0.037672445 -0.01608432
000020 e0 2a 7f bb bc d2 cc 3c f0 f1 bf 3b 5c 3e 12 3d
       -0.0038935468 0.02500283 0.0058576986 0.035704
000030 4c 3a 99 3d 90 b3 24 3d 1c e9 3a 3d fa 95 b1 3d
       0.07481822 0.040210307 0.045632467 0.08671184
000040 e8 31 16 3d 40 19 73 bc 78 eb 9e 3c cc 33 d2 bc
       0.036668688 -0.014837563 0.01939939 -0.025659464
000050 f0 dd 21 bd 00 9b 61 3d fc c6 d7 bc 34 d8 a8 bd
       -0.039518297 0.05507946 -0.02634 -0.082443625
000060 d8 ef 56 3d 60 7e f6 bb 8b b8 af bd de c6 48 bd
       0.052474827 -0.0075223893 -0.08580121 -0.04901778
000070 d8 f1 20 3d 80 3c 6f 3c c4 41 2b bd c0 b9 26 3d
       0.03929314 0.014601827 -0.041810766 0.04070449
000080 2f 50 09 bd 46 05 9d bd b0 34 d0 3c 00 6f 9e 3d
       -0.033523735 -0.076670215 0.025415748 0.07736015
000090 92 70 8c bd 7a d4 83 bd c4 d1 ab bd a0 cd 1c 3c
       -0.068574086 -0.06437011 -0.08389619 0.009570509
0000a0 be 39 a6 3d a8 6e ee bc 6e 21 b3 bd 50 99 45 3c
       0.08116482 -0.0291055 -0.087466106 0.012060478
0000b0 18 29 0e 3d c4 d6 34 3d 6f 9e b2 bd cc 81 ef 3c
       0.03470716 0.04415013 -0.08721625 0.029236697
0000c0 f0 ce 1c bc 80 ba 4d 3c 1e 91 94 bd 40 4d d1 bc
       -0.009570822 0.012556672 -0.072542414 -0.025549531
0000d0 80 c8 dc 3a 6d 30 90 bd 6c 16 9d 3d e0 25 8f 3d
       0.0016844422 -0.070404865 0.07670292 0.06989646
0000e0 08 a7 65 3c b4 50 ac bd 98 a3 9e 3d 8e 3a 9a 3d
       0.014016874 -0.084138304 0.07746047 0.075307
0000f0 a6 01 ed bc 37 d1 5d bd 90 4d eb 3c 18 9f 46 3c
       -0.02893145 -0.0541546 0.028723508 0.012122892
000100 80 c9 d4 bb 10 9a 11 3d 7c 2f a1 3c 74 4c 7a 3d
       -0.0064937472 0.035547316 0.019675963 0.061108068
000110 3c db 77 3d b2 8c 82 bd e0 bd 60 3b 5c 8b 7f 3d
       0.060511813 -0.06374492 0.0034292862 0.062388763
000120 78 67 b6 bc 0a f5 aa 3d ec 5e 89 bd f4 f6 81 bc
       -0.022266135 0.08347519 -0.06707558 -0.015864827
000130 3c 18 e8 3c c0 d6 76 3d f0 dd 5e 3d dc 46 05 bd
       0.028331868 0.060263395 0.054410875 -0.03253828
000140 18 39 75 3d 18 3d a4 bd a2 90 ba 3d af d1 9e bd
       0.059868902 -0.08019465 0.09109618 -0.07754838

fc3.weight f4 [10, 84]
000000 a4 33 db 3c 18 2c 37 bc c7 09 b9 3d 6c 27 a5 3c
       0.026758023 -0.011179946 0.09035068 0.0201604
000010 e3 24 a3 bd 49 04 d3 3d 52 96 09 3d 61 bd d5 bd
       -0.0796602 0.10303552 0.033590622 -0.10436512
000020 a2 0d 2b 3d f8 1e 4d 3c a7 c8 94 3d c2 ac 4d 3d
       0.04176105 0.012519591 0.07264834 0.050213583
000030 75 de 70 bd e4 11 86 bc a0 ef 42 3b 8e 56 31 3d
       -0.0588059 -0.016365953 0.0029744878 0.043295436
000040 7f 5b 96 3d 7b a4 bd 3d a0 11 b6 bb ff 7b 71 bd
       0.0734167 0.09259888 -0.0055563003 -0.058956143
000050 62 d4 81 bd e0 8e 5b bc aa b2 6e 3d dc 08 b5 3c
       -0.06339337 -0.013400763 0.058275856 0.022098951
000060 e8 d1 34 bd 71 45 d5 bd f4 ae 0c bd 92 55 78 3d
       -0.044145495 -0.104136355 -0.034346536 0.06062848
000070 90 0d 32 bc c8 c7 2c 3c b4 c9 b3 3c a4 a8 c3 3c
       -0.010867491 0.010545678 0.021946765 0.023884125
000080 2e 61 2f 3d a6 4a 77 3d ec 60 96 3c 0a 13 3b bd
       0.042817287 0.060373925 0.018356763 -0.045672454
000090 c4 30 c0 bd f6 54 2d bd 46 3e 89 bd 9e 8e c5 bd
       -0.09384301 -0.042317353 -0.06701331 -0.09646343
0000a0 93 0a c4 3d e7 cd a7 3d 96 4e 52 3d 45 7a 40 bd
       0.09572329 0.0819357 0.051344477 -0.046991605
0000b0 07 a8 c3 3d 65 ad 69 bd 60 24 2d bd 62 b7 8c bd
       0.09553533 -0.057050128 -0.042271018 -0.06870915
0000c0 de e7 4c 3d 9f 03 de 3d b0 97 c9 bb 38 2e 52 bd
       0.050025813 0.108405344 -0.0061521158 -0.05131361
0000d0 d9 46 ba 3d fd 50 b2 bd 4c 4d d7 bd ec 0b fc bc
       0.09095544 -0.087068535 -0.1051279 -0.030767404
0000e0 f6 84 8a bd 21 e3 ad 3d aa 70 10 3d 70 ef f3 bb
       -0.067636415 0.08490587 0.035263695 -0.0074443147
0000f0 2e 66 0f 3d 5c 90 9c bd c7 11 60 bd 10 05 86 3b
       0.035009556 -0.07644722 -0.054704454 0.004089959
000100 a0 a2 95 bc 55 e9 59 bd 7c 5c 91 3c af 8f 88 3d
       -0.018266022 -0.05320104 0.017744295 0.066680305
000110 69 a9 bf 3d f0 2e 0d 3c 78 c7 bc bc 31 88 86 3d
       0.09358484 0.008617148 -0.023044333 0.06568945
000120 88 9b 84 bc c9 ff 42 bd 00 a0 ac b9 50 e6 b4 bb
       -0.016187444 -0.047607217 -0.00032925606 -0.0055206195
000130 f7 5b da 3d 3e 19 17 3d ce 30 40 3d 60 29 d2 bc
       0.10662072 0.036889307 0.046921544 -0.025654495
000140 60 d9 d9 bd c6 34 6b 3d e4 d3 e9 3c 54 37 f9 3c
       -0.10637164 0.057423376 0.02854342 0.03042189
000150 10 ac 76 bc c7 c7 cd bd 46 8d 49 3d ab 87 b8 3d
       -0.015055671 -0.1004787 0.049206994 0.090102516
000160 00 34 4f 3b d5 5f d3 bd 05 ed 84 3d a5 d3 a8 3d
       0.0031616688 -0.10321013 0.064905204 0.08243493
000170 f8 f1 4f bd 6c fd c5 bc 59 c1 c2 bd 9a 9d 07 3d
       -0.05076787 -0.024168693 -0.095095344 0.033109285
000180 e4 b2 9d bd ea c4 4b 3d 4b e0 b5 3d 6e a8 42 bd
       -0.07700136 0.04974834 0.08880671 -0.04752391
000190 3d 5f 7c bd ce 00 41 3d aa fd 9b bd 0e 67 54 3d
       -0.061614264 0.047119908 -0.07616742 0.051856093
0001a0 3e d3 bb bd b4 06 85 3c a0 77 d6 bc c5 d2 d2 bd
       -0.091711506 0.016238548 -0.026180089 -0.10294107
0001b0 3f 33 d9 3d 20 7b 59 3c ee 10 19 3d c5 5e ab 3d
       0.106054775 0.013273984 0.03736966 0.08367685
0001c0 9e 1c 61 bd c8 91 97 bc 62 bb b7 bd 81 8d d4 3d
       -0.054958932 -0.018502131 -0.08971287 0.10378552
0001d0 fa d3 9f bd 2a b8 62 3d 02 b3 37 bd f8 d5 52 3c
       -0.07804103 0.055351414 -0.04484845 0.012868397
0001e0 31 21 8b bd 1f f0 87 bd 92 c4 b8 bd 49 f4 a7 3d
       -0.0679344 -0.06637596 -0.09021868 0.082008906
0001f0 e0 f3 e8 bb 39 8b 86 3d 94 98 94 3c 34 96 bb bd
       -0.0071091503 0.06569523 0.018139161 -0.09159508
000200 dc cf e9 bc fa a7 44 3d b4 a1 de 3c e9 2b 76 bd
       -0.028541498 0.048011757 0.027176715 -0.06010047
000210 00 04 0b 3c c8 ed bb bd e6 cb 69 3d 29 92 d4 3d
       0.00848484 -0.091762125 0.05707922 0.1037944
000220 3c 09 9d 3c d0 55 95 bc ec d4 a0 bc 61 26 c5 3d
       0.019169442 -0.018229395 -0.019632779 0.09626461
000230 86 f8 20 3d db 15 9d bd 78 69 50 bc b8 a4 61 bc
       0.03929951 -0.07670184 -0.012720458 -0.013772182
000240 12 be b0 bd c5 56 74 bd d7 df 97 3d 24 32 e8 3c
       -0.08630003 -0.059653062 0.07415741 0.028344221
000250 83 e1 a0 3d d0 19 8b bc f2 6f 06 bd 3a 4d 1f 3d
       0.07855513 -0.016980082 -0.032821603 0.03889201
000260 86 cc 5e 3d cc d3 6a bd a6 4c b1 bd 58 24 0d 3c
       0.054394267 -0.05733089 -0.08657198 0.008614622
000270 62 13 a9 bd 04 71 cd bc e6 a9 36 3d 94 f8 3a bd
       -0.0825565 -0.025078304 0.04459562 -0.04564722
000280 95 ff 82 3d d0 30 de 3b f1 89 67 bd 6f 7b 82 3d
       0.06396405 0.0067807212 -0.056528036 0.06371199
000290 be 47 6a 3d c5 e9 90 3d d8 3c d3 bc 60 53 36 3c
       0.057197325 0.07075838 -0.025785848 0.011128277
0002a0 1b 7f c5 3d 18 96 82 bd 31 dd ce 3d 68 5c ef bc
       0.09643384 -0.06376284 0.10100783 -0.029218867
0002b0 6b f9 d7 bd ec 84 18 bd 77 24 53 bd 20 c4 75 bb
       -0.105456196 -0.03723614 -0.051548447 -0.0037500933
0002c0 a8 90 e8 bc ce bc 7c 3d 00 ad b1 b9 63 c2 7e bd
       -0.02838929 0.061703496 -0.00033888966 -0.0621971
0002d0 a6 96 1f 3d 90 3a 43 3c aa 52 5f 3d 76 6f 1c bd
       0.03896203 0.011915818 0.054522194 -0.038192235
0002e0 b2 b8 24 bd bc 6d c2 bd b3 6e 99 3d 46 3e 77 3d
       -0.0402152 -0.094935864 0.07491817 0.060362123
0002f0 22 33 5e 3d f2 d2 30 3d 14 64 9a 3c 40 5c 98 ba
       0.054247983 0.043169923 0.01884655 -0.0011624172
000300 0f a3 97 3d 08 44 1e bc 02 9c 24 3d d1 b3 83 3d
       0.07404148 -0.009659775 0.040187843 0.06430782
000310 94 a1 bb bd 1f ea b2 bd e8 f9 ef bc 0a aa de bd
       -0.09161678 -0.08736061 -0.02929397 -0.10872276
000320 7f a5 d4 3d 91 c6 92 3d 13 fa a5 3d 10 3e a1 bd
       0.103831284 0.0716678 0.081043385 -0.078731656
000330 a4 fb b4 bc 32 74 16 3d be 81 03 3d 50 f0 44 bd
       -0.022092648 0.036731906 0.032106154 -0.048080742
000340 86 1d be bd 24 8d f0 3c d6 e4 58 3d 7d 93 99 3d
       -0.09282975 0.029364176 0.05295261 0.07498834
000350 b3 ec a7 3d 59 78 44 bd ab c5 a0 bd 74 56 94 bd
       0.08199444 -0.047966335 -0.07850202 -0.07243052
000360 9c e0 ca 3c b0 97 db bc 34 b0 b8 3c 68 ce 9c bc
       0.024765305 -0.026805729 0.022544958 -0.01914139
000370 80 e6 fd 3b 39 99 93 3d 62 77 13 bd 05 f2 c7 3d
       0.007748425 0.07206959 -0.036002524 0.097629584
000380 5a 98 1e 3d b8 a7 28 bc a7 54 c9 bd e2 89 ce bd
       0.038719513 -0.0102938935 -0.09830599 -0.10084893
000390 d5 0d cb 3d d7 0e ac 3d 43 e2 d8 3d 5d f8 9d 3d
       0.099147476 0.08401268 0.10590031 0.07713387
0003a0 06 de 3d 3d 78 85 b5 bc ed 2c ad 3d 90 13 b6 bc
       0.046354316 -0.02215837 0.084558345 -0.022226125
0003b0 93 0c 95 3d 9c 10 d5 3c 57 d9 d9 3d 0e 61 43 bd
       0.07277789 0.026008897 0.106371574 -0.04769998
0003c0 4e 74 96 bd 6c 63 a9 bc cc f8 bf bc aa 94 93 bd
       -0.07346402 -0.02067729 -0.023434065 -0.0720609
0003d0 1e 23 3b bd 1c c6 8b 3c 36 c6 35 3d 3b 56 dc 3d
       -0.045687787 0.01706224 0.04437848 0.10758635
0003e0 9a 40 a9 bd a0 d2 d4 bc 47 7e d2 bd a0 dd ce bd
       -0.08264275 -0.02597934 -0.10277992 -0.10100865
0003f0 d7 7e a6 3d 00 a2 5c bb 08 c5 12 bd 30 fa 9e 3b
       0.081296615 -0.0033665895 -0.035832435 0.004851602

fc3.bias f4 [10]
000000 37 ae 5b bd 1d 71 a9 bd 13 97 6b bd bc 60 af 3c
       -0.05363294 -0.08273528 -0.057517122 0.021408431
000010 4f 0f d6 3d 14 44 89 3c db 1d 97 3d a2 ef c5 bd
       0.10452139 0.016756095 0.07378741 -0.09664847
000020 f8 d2 20 bd 46 7c 51 bd
       -0.039263695 -0.051143907
