D20210408/net1.pth (torch_old, 179222 bytes, 10 tensors)

conv1.weight f4 [6, 1, 5, 5]
000000 54 4d 57 3d cd a6 9b bd 86 0d 20 be a8 de 87 bc
       0.05256398 -0.07600174 -0.15630159 -0.016585663
000010 f0 4a 4a be 13 ad 35 be 6e ee cb 3d 40 4e a9 bb
       -0.19755149 -0.17741804 0.09957586 -0.005166799
000020 ec 7a 31 bd 75 21 29 be 89 c3 3d 3e 0f 74 02 3e
       -0.043330118 -0.16516669 0.18531622 0.12739585
000030 f0 84 ea bc 5f b9 24 3e 62 59 f8 3d d8 04 15 3d
       -0.028627843 0.16086338 0.121264234 0.036381572
000040 88 25 67 bd 7d fb 43 3e 12 d5 46 be 54 8d 99 bd
       -0.056432277 0.19138904 -0.19417217 -0.07497659
000050 15 a3 1a be 20 c9 50 3c d8 e2 e7 3c d7 52 3d 3e
       -0.15101273 0.012743264 0.02830641 0.18488632
000060 95 79 4a 3e b0 0c e0 bc 05 73 33 be de 53 01 be
       0.19772942 -0.0273498 -0.17524345 -0.12629649
000070 50 ef 26 3c d0 f8 ad bd b7 4a a8 bd 0f 72 43 3e
       0.0101888925 -0.08494723 -0.08217376 0.19086479
000080 f4 85 79 bd 45 70 10 3e db 08 4c be 2f 22 26 3e
       -0.060918763 0.14105327 -0.19925253 0.16223978
000090 60 df 33 be d4 da 87 bd 3a 8c 84 3d 3a 8e e1 3d
       -0.1756568 -0.06633535 0.064720586 0.11013456
0000a0 08 f0 4c bd 4a ef 9b 3d 00 56 af 3c 68 7b f1 3c
       -0.0500336 0.07614 0.021403313 0.02947779
0000b0 a3 0c d7 bd 04 1c 7f 3d 5f 6f 2d 3e a8 dd 2a be
       -0.10500457 0.062282577 0.16937016 -0.16686118
0000c0 20 47 f2 bd 43 7d 2e be 8a 3f bc bd cf b0 27 3e
       -0.11829972 -0.17039971 -0.091918066 0.16376041
0000d0 c7 ed a6 bd 5a 51 b0 3d b1 68 0d 3e d2 44 b4 3d
       -0.08150821 0.086092666 0.13809468 0.08802189
0000e0 ce 3c b3 3d db 53 3c 3e ea cd cb bd 5d f4 3d be
       0.08751832 0.18391363 -0.09951384 -0.18550248
0000f0 09 3b 11 3e 20 80 d4 bd d4 a9 74 3d 14 2f 05 bd
       0.14182676 -0.103760004 0.059732273 -0.0325156
000100 91 06 44 3e 35 53 2c 3e 04 51 4d 3d 0c e6 7d bd
       0.1914313 0.16828616 0.05012609 -0.061986968
000110 d0 3e 75 bc 80 49 b6 3a 21 09 3d 3e 9e 8a dd 3d
       -0.014968589 0.0013907403 0.18460514 0.10817455
000120 8d 8d 0e be 00 f4 ae 3b 0e af 86 3d 50 44 9d bd
       -0.13921185 0.0053391457 0.06576358 -0.07679045
000130 9a f6 8f bd 21 cf 32 3e 60 c8 5d 3c 30 d5 db bd
       -0.070294574 0.17461826 0.013536543 -0.10734022
000140 d0 c3 2e bc b2 8b ba 3d bc 24 82 bd a8 b9 3c bd
       -0.0106668025 0.09108676 -0.06354663 -0.046075493
000150 2a 9f 1b be 08 7a 75 bd 27 b4 36 3e 68 18 b4 bc
       -0.15197435 -0.05993083 0.1784216 -0.021984294
000160 b2 9a 03 be fa df 2e be ef 8f 45 be 11 83 40 3e
       -0.1285198 -0.17077628 -0.19293188 0.18799998
000170 c9 3d 07 3e e9 6e 2e 3e 60 88 b5 bb 09 e8 4a 3e
       0.13207163 0.17034496 -0.005539939 0.19815077
000180 49 a9 07 3e e3 5b e5 bd e0 c4 32 3d e4 76 81 bd
       0.13248171 -0.111991666 0.043644786 -0.06321505
000190 c0 c1 b3 3b c2 89 28 be f8 80 15 be c0 3d e9 3b
       0.0054857433 -0.164588 -0.14599979 0.007117957
0001a0 52 47 eb 3d e8 3d 21 bd c8 83 1b bd 20 3a c4 bd
       0.11488213 -0.03936568 -0.037967473 -0.09581399
0001b0 1a 79 25 be a8 15 21 be 97 ea 1c 3e d0 4f 2a bc
       -0.16159478 -0.15730917 0.15323864 -0.010395005
0001c0 6d fd cd bd 82 f0 9b 3d f1 00 44 3e c0 2e 99 3b
       -0.10058103 0.076142326 0.19140984 0.0046747625
0001d0 6b f9 24 be 22 b1 e5 3d 40 df c9 bb d0 ab 48 be
       -0.1611077 0.11215426 -0.0061606467 -0.19596791
0001e0 a5 73 18 be 80 19 29 bc 40 8d 7d 3b 08 42 62 bd
       -0.14887865 -0.010321021 0.0038688928 -0.055238754
0001f0 62 25 e6 3d c8 ca 40 be b1 bd 2b 3e 9f 93 11 3e
       0.11237599 -0.18827355 0.1677158 0.14216469
000200 91 ee 00 3e 32 4d 91 3d 40 fe 8a bc 57 2c 45 3e
       0.12591006 0.07094802 -0.016966939 0.19255196
000210 b9 84 28 3e 4e fa 21 be f7 cd 3e be a7 87 9d bd
       0.1645688 -0.1581814 -0.18633257 -0.07691889
000220 46 5a 04 be f1 b3 47 3e e6 63 e7 3d 60 9b c9 bb
       -0.12925062 0.19502236 0.11298351 -0.0061525553
000230 c5 19 0d be 58 29 42 bd ca 6c 89 bd 19 d1 04 3e
       -0.13779362 -0.04740271 -0.06710203 0.1297039
000240 79 13 2e 3e d8 23 49 be 13 31 d6 bd 30 39 39 be
       0.16999616 -0.1964258 -0.10458579 -0.18088222
000250 33 f7 41 3e 2a 85 f7 bd
       0.18941955 -0.12085946

conv1.bias f4 [6]
000000 5d 3b 13 be 1b bc 08 3e e4 3c 77 3d d8 ae e8 3c
       -0.14378114 0.13353007 0.060360804 0.028403684
000010 81 af 4c 3e b1 5f 07 3e
       0.19988824 0.13220097

conv2.weight f4 [16, 6, 5, 5]
000000 99 00 7a bd fc d8 80 3d 17 00 86 bd 2b ee 2a bd
       -0.061035726 0.062913865 -0.06542986 -0.04173104
000010 ab 04 0a bd 6c 99 a2 3d 9e 03 55 bd bc 4b 8b bd
       -0.033695858 0.07939419 -0.052005403 -0.068015546
000020 4e c3 8b bd 3c 45 2e 3d f6 d7 d4 bc 48 be 36 bc
       -0.06824361 0.042546496 -0.025981884 -0.011153765
000030 86 aa d9 bc b4 74 ed 3c 3c 64 b7 3c 9a 57 9f 3d
       -0.02657057 0.028986312 0.022386663 0.077803805
000040 0c 14 83 3d 90 ff 7b 3c db 0e 3c bd 34 e7 59 3d
       0.06400308 0.015380755 -0.045912605 0.053199008
000050 50 d2 4a 3c 00 28 ea 3b 98 c1 97 3d d8 18 0e 3c
       0.012379244 0.0071458817 0.07409972 0.008672915
000060 6b aa 94 bd 1a c3 15 3d 00 1d 96 3c fc ee a8 3c
       -0.07259067 0.036563016 0.018324375 0.02062177
000070 4c b5 95 3c de 17 70 bd 7c 39 a2 3d bc ce 94 3d
       0.018274926 -0.05861651 0.079211205 0.07265994
000080 62 de a2 bc 31 b6 01 bd 39 5b 1b bd cc 4a 4e 3d
       -0.019881431 -0.031667892 -0.037928794 0.0503643
000090 80 f7 49 bb 32 e2 91 3d a8 ae 19 3d f4 7a d3 bc
       -0.0030817688 0.071232215 0.03752008 -0.025815465
0000a0 90 1c 19 bc 9b d5 2c bd 28 a5 72 bc 80 c7 a4 3a
       -0.009345189 -0.042195898 -0.014809884 0.0012571663
0000b0 c8 e9 67 3d bc 68 83 3d 63 b4 0b bd d6 6e 9b 3d
       0.056619436 0.06416461 -0.034107577 0.075895
0000c0 08 2b 74 3d 18 ac 36 3c 36 1b c2 bc a9 fc 9d bd
       0.05961135 0.011149429 -0.023694616 -0.07714207
0000d0 80 d7 e1 3c 29 73 9f bd e0 b0 e9 bb 68 1d 01 bd
       0.027568579 -0.07785637 -0.007131681 -0.031522185
0000e0 09 76 01 bd 74 da 83 bd 20 0c 35 bb 14 71 9d bd
       -0.031606708 -0.06438151 -0.0027625635 -0.076875836
0000f0 a0 2e 58 bb 20 e1 d4 bb 18 82 ee 3c 10 a6 b9 bc
       -0.0032986775 -0.0064965636 0.029114768 -0.022662193
000100 fe a5 9d 3d 3c e1 5b bd ba 40 1e 3d 76 11 11 3d
       0.07697676 -0.053681597 0.038635947 0.035417043
000110 dd 44 20 bd ac 1d 76 3d fb 4c 38 bd 6b fd 08 bd
       -0.039128173 0.06008689 -0.04499529 -0.033444803
000120 bc 71 9b 3d f8 7b e8 3c fc d1 29 3d 1c 95 6e bd
       0.075900525 0.028379425 0.041460022 -0.05824767
000130 58 ef ef bc b0 e7 b4 bc a0 0b 66 bb f6 ff 7c bd
       -0.029288933 -0.022083133 -0.0035102144 -0.06176754
000140 7b 06 98 bd 5c 37 48 3d 8c 18 c8 3c ec 53 73 3d
       -0.07423111 0.04888092 0.024425767 0.059406206
000150 9c f7 26 3d 00 d8 62 bb 84 dc fd bc ab 65 45 bd
       0.040763482 -0.003461361 -0.03098894 -0.04819266
000160 b0 f2 1c bd 3c 91 81 bc 00 5c 59 3c 4c eb 33 3d
       -0.038317382 -0.015816323 0.013266563 0.04392557
000170 ec 0b 64 3d be 32 9b bd 60 32 9f 3b 70 0c 88 bc
       0.055675432 -0.07578038 0.0048583 -0.016607493
000180 65 7b 8c bd 48 63 8b 3d 08 6f 45 bc a4 fa 88 3d
       -0.06859473 0.06806046 -0.012050398 0.06688431
000190 74 a2 b6 3c 50 77 31 3c 24 9f 7c 3d 44 db 7e bd
       0.02229426 0.010831669 0.061675206 -0.062220827
0001a0 b5 67 88 bd 74 7a 95 3d 40 c9 4c 3b 00 9d 33 3d
       -0.066604055 0.07298747 0.0031247884 0.0438509
0001b0 4c b3 e6 3c 18 b0 68 bd d0 c2 ae 3b 76 a0 99 3d
       0.028161667 -0.05680856 0.005333282 0.075013086
0001c0 52 51 19 bd 90 b4 6e 3d 14 6d 59 3d da e5 19 3d
       -0.03743107 0.058277667 0.05308254 0.03757272
0001d0 38 2c 67 bc b2 98 8a 3d 82 bf 6a bd 90 08 e8 3c
       -0.014109664 0.067674056 -0.057311542 0.028324395
0001e0 78 9d a7 3c 4c 29 67 bd 24 13 9e bc b8 d2 79 bd
       0.02046083 -0.05643587 -0.019296236 -0.060991973
0001f0 de 30 91 3d c5 a6 16 bd 94 bb ff bc 24 93 93 3d
       0.07089399 -0.036780138 -0.031217374 0.07205799
000200 99 67 87 bd 32 c3 8b 3d f3 14 97 bd 66 c0 c0 bc
       -0.066115566 0.0682434 -0.073770426 -0.023529243
000210 96 82 7a bd b4 ef c2 3c db fc 72 bd 2c dd 09 3d
       -0.061159693 0.02379594 -0.059323173 0.03365819
000220 a3 ac 6a bd f4 b2 43 3d c0 b0 39 bc 38 4f a0 3c
       -0.057293545 0.047778085 -0.011333644 0.019569024
000230 ac b9 04 3d 58 f3 5c 3d ea 1c 39 bd 62 09 a4 3d
       0.032403633 0.05394301 -0.04519359 0.08009602
000240 b6 11 29 bd 38 25 a6 bd 0d 67 12 bd d0 4f a3 bc
       -0.041276656 -0.08112568 -0.035742808 -0.019935519
000250 72 ee 83 3d 90 06 e7 bc 84 e2 6e bd 44 89 55 3d
       0.06441964 -0.028201371 -0.05832149 0.05213286
000260 c5 10 8c bd 20 ec 9a bc 80 b8 ad ba 02 03 6e bd
       -0.06839136 -0.018911421 -0.0013253838 -0.058108337
000270 4a 25 9f bd 98 d9 63 3d 94 fa 15 3d 20 e4 f0 bb
       -0.07770784 0.055627435 0.036615923 -0.0073514134
000280 b8 67 89 3d a0 a4 91 3d 1d 25 9a bd 78 52 e3 3c
       0.06709236 0.07111478 -0.0752661 0.027749285
000290 32 2d 3f bd 92 75 21 3d 42 7a 30 3d 60 59 a6 3c
       -0.04667396 0.039418764 0.043085344 0.02030629
0002a0 e4 de 5e 3d 1a 45 99 3d 50 04 b7 bc b5 87 07 bd
       0.054411784 0.07483883 -0.022340924 -0.033088405
0002b0 ca 17 0a 3d 68 74 91 bd e0 7e 7a bb 05 42 1e bd
       0.033714093 -0.07102281 -0.0038222596 -0.03863718
0002c0 78 b2 57 3c 12 23 c9 bc 46 4c 1c bd 95 e3 45 bd
       0.013165109 -0.024552856 -0.038158678 -0.048312742
0002d0 30 51 96 bd 5c 4d f1 3c 94 72 05 3d 88 9d e0 bc
       -0.07339704 0.029455833 0.032579973 -0.027418867
0002e0 68 e7 ac bc 0a 6c 81 3d 80 de 79 3b 38 19 a1 3c
       -0.021106437 0.06319435 0.0038127005 0.019665346
0002f0 ac f0 30 3d 22 55 97 bd c0 aa 39 3d f8 92 46 3d
       0.043198273 -0.07389285 0.045328856 0.048480004
000300 50 f2 f4 bb 24 2f 3b 3d 18 f0 9a 3c 5e f1 70 bd
       -0.007475175 0.045699254 0.018913314 -0.058823936
000310 e8 5f 26 bc 5a e5 2b 3d d8 42 4c 3c 78 90 54 bc
       -0.010154702 0.041966774 0.012467109 -0.012973897
000320 01 39 1c bd 9c 01 6a bd 74 b3 3e bd a6 21 59 bd
       -0.0381403 -0.05713044 -0.04655786 -0.053010605
000330 c0 1d 51 3d 10 f8 01 bc 30 ba f5 3c b8 21 74 3c
       0.051053762 -0.007932678 0.029996008 0.014900617
000340 60 1a 46 3d 18 3c f5 3c 7c f6 93 3c 98 17 d2 3c
       0.048364997 0.029935881 0.018061869 0.025646016
000350 00 63 55 3a b8 41 6a 3c c4 55 91 bc 40 c9 3e 3d
       0.00081400573 0.014297895 -0.017741092 0.046578646
000360 92 1c 21 bd 78 b9 66 bd cc ef a4 bc 66 d2 15 bd
       -0.039333887 -0.05632922 -0.020133875 -0.036577605
000370 04 50 2f 3d ac a8 49 bd 5a 4c 87 bd e2 0c d9 bc
       0.04280092 -0.049233124 -0.0660636 -0.0264954
000380 08 61 5c 3c 20 a1 cb 3b 4c f7 6b 3d 1f ae 20 bd
       0.013450868 0.006214276 0.057608888 -0.039228555
000390 88 7e df bc ac 31 87 bd c0 a6 b6 bb 00 51 c4 ba
       -0.027282014 -0.06601271 -0.0055740774 -0.0014977753
0003a0 38 db b1 3c 37 a4 10 bd 7a 99 94 bd d0 39 4b bc
       0.021710977 -0.035312857 -0.07255836 -0.01240392
0003b0 92 6e 91 bd dc 7c d9 bc a0 f4 42 3d 5e dd 2d 3d
       -0.07101168 -0.026548795 0.047596574 0.04244744
0003c0 b8 43 11 bc c9 ca 94 bd 3b 57 09 bd c8 49 96 3d
       -0.008866243 -0.07265241 -0.033530455 0.073382914
0003d0 40 6e 86 3b e1 46 2b bd c4 54 82 3c 74 c1 71 3d
       0.0041024983 -0.041815642 0.01590956 0.059022382
0003e0 38 8b 0f 3d a4 1d 87 3d 4c 67 3f bd fa 96 45 bd
       0.03504488 0.065974504 -0.04672937 -0.048239686
0003f0 4e 3a 53 bd 32 1f fa bc 73 ac 92 bd 90 e4 ed bc
       -0.051569276 -0.030532453 -0.07161798 -0.029039651

conv2.bias f4 [16]
000000 44 e3 8d bd d9 d2 15 bd 11 4a 01 bd 5a 6f 5a bd
       -0.06928113 -0.036578033 -0.031564776 -0.05332885
000010 90 41 e9 3c 00 d3 3d bb 78 cf a1 bc 7e 78 42 bd
       0.028473645 -0.0028964877 -0.01975225 -0.04747819
000020 04 9e d3 bc fa 5a 01 3d c0 48 db 3a 66 34 8c 3d
       -0.025832184 0.031580903 0.0016730055 0.06845932
000030 7c 6f 84 3c 91 f5 a2 bd 36 eb 9a 3d 00 e1 fb 3b
       0.016166441 -0.07956994 0.07564394 0.007686734

fc1.weight f4 [120, 256]
000000 98 3c 73 3d 14 c0 61 bd 80 fe dd bc 80 6b b7 bc
       0.05938396 -0.05511482 -0.027098894 -0.022390127
000010 82 4c 4f bd c6 fd 59 3d c0 3d b6 3c 90 9b 63 3d
       -0.050610073 0.053220533 0.022246242 0.055568278
000020 20 99 15 bc a0 d2 4a bc a0 f5 4c 3b b8 35 5a 3d
       -0.009130746 -0.0123793185 0.0031274334 0.053273886
000030 10 89 b1 bb c6 76 7a 3d 68 72 2b 3c 48 e3 12 3d
       -0.0054179505 0.061148427 0.010464288 0.035861284
000040 b8 63 16 bd 0a b6 23 bd 00 98 8b ba ec ef 9c bc
       -0.036716193 -0.039968528 -0.0010650158 -0.019157372
000050 4c 98 23 3d a0 81 69 3d e8 55 82 3c 38 d9 2a bd
       0.039940163 0.057008386 0.015910104 -0.041711062
000060 f4 4d cb bc b2 bd 3b bd a0 98 9e bc 6c b8 77 3d
       -0.024817444 -0.045835204 -0.019359887 0.060478613
000070 ec 0f 67 3d 60 53 e2 bb 6c a3 c3 bc 8e a4 52 bd
       0.05641167 -0.0069069117 -0.023881637 -0.051426463
000080 e0 74 de bb dc 6d 46 3d b2 b4 06 bd ca cc 7e bd
       -0.006788835 0.048444614 -0.03288717 -0.06220702
000090 44 07 d5 3c 7c 7f c6 bc b0 af 3a bc 62 7d 5f 3d
       0.026004441 -0.024230711 -0.011394426 0.054562934
0000a0 32 c3 3d bd 7c 62 45 3d c0 f9 91 3c 60 6f 7c bd
       -0.04632873 0.048189625 0.017819285 -0.061629653
0000b0 70 06 2d 3c 30 6a 1f 3c c4 c7 13 3d 10 fd 29 bc
       0.010560617 0.009729907 0.036079183 -0.010375276
0000c0 7c 99 b0 bc b0 b3 7a bc 54 0c e1 bc ee 65 7a 3d
       -0.021557562 -0.01530163 -0.027471699 0.061132364
0000d0 90 ee 05 bc ae 25 4e bd 40 de fe 3a e8 74 2f bc
       -0.0081745535 -0.050328903 0.0019444898 -0.010709025
0000e0 e8 15 bd bc 72 67 7e bd 74 4e 09 bd 70 45 a7 bb
       -0.023081735 -0.062110372 -0.033522084 -0.005104713
0000f0 c4 68 91 3c 20 77 2f bd 08 d6 6b bc bc 89 e7 bc
       0.017750151 -0.042838216 -0.014394291 -0.028263919
000100 a6 12 42 bd 30 46 74 bc 9e b1 21 3d 2a bc 01 3d
       -0.047381066 -0.014909312 0.03947603 0.031673588
000110 0c b6 81 bc 46 a1 45 3d 08 9d b3 3c cc 95 b3 3c
       -0.015833877 0.048249505 0.021925464 0.021922015
000120 80 48 07 3b de 04 09 bd e8 34 67 bc 8c 28 5c bd
       0.0020642579 -0.033451907 -0.014111735 -0.053749606
000130 00 c0 85 bb 14 5b b2 bc d0 14 c2 bb e6 10 18 3d
       -0.004081726 -0.021771945 -0.005922891 0.03712549
000140 ce 5c 1d bd 3c 4c c5 bc ec 75 c6 3c 64 9f 6d 3d
       -0.038418584 -0.024084203 0.024226151 0.058013335
000150 c0 f9 3e 3d 30 e3 b6 3b a0 38 2b bb 6a 48 2e bd
       0.0466249 0.005581282 -0.002612628 -0.04254953
000160 f0 bc a1 bc 10 9a db bb 8c 86 60 bd b0 fb 57 bc
       -0.019743413 -0.0067017153 -0.054815814 -0.013182566
000170 02 dc 78 bd e0 dd 31 bd e6 4d 7b bd 44 a3 9f 3c
       -0.06075669 -0.043424487 -0.061353587 0.01948703
000180 34 65 1b bd e0 a7 c3 bc 6c 26 4c bd 88 12 44 bd
       -0.03793831 -0.02388376 -0.04984133 -0.047869235
000190 8a c2 08 3d b8 a2 00 3d bc ea a3 bc 9c 35 6b 3d
       0.033388652 0.03140518 -0.020009391 0.057424173
0001a0 38 a1 3a 3c de 80 7a 3d e0 5a 92 bb 70 70 d0 3b
       0.011390977 0.061158054 -0.0044663996 0.00636106
0001b0 c0 eb f8 bb b4 92 35 3d f4 3b 5f bd 26 50 70 bd
       -0.007596463 0.04432936 -0.054500535 -0.058670186
0001c0 f8 38 5f 3d c0 2c fd 3a 24 63 52 bd d0 8c d9 3c
       0.05449769 0.0019315705 -0.05136408 0.026556402
0001d0 e0 22 42 bd f2 ad 54 3d a0 48 90 bc a0 26 43 bd
       -0.04739654 0.0519237 -0.017612755 -0.047644258
0001e0 30 70 8a bc 7c 6f 57 bd 10 09 67 bc 80 08 8f 3a
       -0.016899198 -0.052596554 -0.014101282 0.0010912567
0001f0 c0 d8 ff 3c fc fd 01 bd e0 d4 e6 bb a8 0a 89 bc
       0.031231284 -0.03173636 -0.0070444196 -0.016728714
000200 bc c2 85 bc c8 7c 12 3c 86 7b 5b 3d aa 57 61 3d
       -0.016328208 0.008940883 0.053584598 0.055015244
000210 d6 91 2b bd 84 6b 4c bd b4 fe 75 3d 78 fb f7 bc
       -0.041887127 -0.049907222 0.060057357 -0.030271277
000220 26 de 22 3d 72 d7 62 3d a0 c9 c3 3c 1a e0 26 bd
       0.03976264 0.055381246 0.023899853 -0.040741064
000230 74 9d 3e bd c0 66 9e ba 50 b3 fb 3b 02 5e 42 3d
       -0.046536878 -0.0012085065 0.007681288 0.047452934
000240 26 f0 00 bd 4c e0 f1 bc 12 bf 3a bd d6 6c 61 3d
       -0.031479023 -0.029525898 -0.045592375 0.055035435
000250 2c 7b 60 3d e4 b5 8a bc 1c 6c ed 3c 6e f6 45 bd
       0.054804966 -0.016932435 0.028982215 -0.048330717
000260 52 b1 11 bd e4 98 ea 3c c8 1b 14 bd f6 62 1f 3d
       -0.035569496 0.028637357 -0.036159307 0.038912736
000270 20 ee e2 bb e4 61 e0 bc e8 3c 2e bd 88 e4 2e 3d
       -0.0069253594 -0.027390428 -0.042538553 0.042698413
000280 c0 f1 a7 3b 20 2c 42 bc 04 23 63 bd c8 b6 ce 3c
       0.0051252544 -0.0118513405 -0.055453315 0.025233641
000290 30 aa 62 3d 7c 8d d1 bc b0 34 6c bd 80 36 c0 3b
       0.055338085 -0.02558016 -0.057667434 0.005865872
0002a0 00 f1 51 bc d6 0f 2c bd c8 e6 6f bc c8 a6 33 3c
       -0.0128138065 -0.04200729 -0.014642425 0.010965057
0002b0 ea 23 59 bd 40 e9 78 bc 70 d8 89 3b 28 50 0a bc
       -0.053012766 -0.01519233 0.0042067096 -0.008441962
0002c0 bc 01 c0 bc 00 a4 f0 b8 3c 13 63 bd 12 88 37 bd
       -0.023438327 -0.00011474639 -0.055438265 -0.0448075
0002d0 88 6a 35 bd a0 21 77 3d 90 6b a6 bc e0 45 cc 3c
       -0.04429105 0.0603348 -0.020314962 0.024935663
0002e0 08 24 95 bc 2a 4f 31 bd 68 f8 12 3c 90 70 5f 3c
       -0.018205658 -0.043288387 0.0089703575 0.013637677
0002f0 ac 17 b2 3c b8 be 18 3d 68 5d 9a bc 4c fa 24 bd
       0.021739803 0.03729126 -0.018843368 -0.040277764
000300 e8 35 21 3d c8 fc 26 bc 20 55 6c bb cc 37 0e 3d
       0.03935805 -0.010192104 -0.003606148 0.03472118
000310 26 b1 6c bd 9a 79 2a 3d 38 f1 56 3d 0c 1d 1e 3d
       -0.05778613 0.041619875 0.052476138 0.03860192
000320 40 f4 72 bb 9c 0a 4c bd a0 40 e0 3c f0 1c b2 bc
       -0.0037071854 -0.049814805 0.027374566 -0.021742314
000330 16 ba 73 3d b8 a9 46 3d 9c 77 89 3c ec 21 be bc
       0.059503637 0.0485017 0.016780667 -0.023209535
000340 d6 bc 2f 3d fc 65 db bc a8 4c f2 3c a0 42 45 3b
       0.042904697 -0.026782028 0.029577568 0.0030099526
000350 c8 43 ad 3c 80 c4 86 3c d8 8f 97 bc be 5c 12 3d
       0.021150485 0.01645112 -0.018501207 0.035732977
000360 ba ae 68 bd 08 32 7c bd d4 c1 2d bd 02 42 65 bd
       -0.056807257 -0.06157115 -0.042421177 -0.055971153
000370 74 72 94 bc 98 a7 78 3d 0c 7d 28 bd fc 34 81 3c
       -0.018120982 0.060706705 -0.04113488 0.015772335
000380 8c 5b ed bc b8 36 f6 3c c6 77 68 3d b8 f9 d6 bc
       -0.028974317 0.030055389 0.05675485 -0.026242122
000390 1a db 55 bd 82 7b 1e 3d f4 2f c4 3c 24 39 a1 bc
       -0.052210905 0.038692005 0.023948647 -0.019680567
0003a0 56 29 18 3d b0 8c ae 3b b0 0b 16 3d aa cd 04 bd
       0.037148796 0.00532683 0.03663224 -0.0324227
0003b0 34 20 8e 3c 06 80 5d bd 90 90 ce bc 62 43 6a bd
       0.01734934 -0.05407717 -0.025215417 -0.057193168
0003c0 0e 3b 62 3d dc ee 0f bd bc 2d 88 bc b8 d9 78 3c
       0.0552321 -0.035139903 -0.01662337 0.015188627
0003d0 b0 84 22 3c ec 56 00 bd 14 09 1c 3d 70 00 c4 bb
       0.0099193305 -0.031332895 0.038094595 -0.0059814975
0003e0 e8 73 da bc ee de 26 3d 5e ef 4f bd 88 e3 6f 3c
       -0.026666597 0.040739946 -0.050765388 0.01464165
0003f0 ac 2b 4a 3d 80 fd 06 ba 00 49 a8 3b 30 b7 d3 bc
       0.049358055 -0.0005149469 0.0051356554 -0.025844187

fc1.bias f4 [120]
000000 bc b8 77 bd 40 c2 bc 3a 3a 78 29 3d 0a 96 12 bd
       -0.06047891 0.0014401153 0.041374423 -0.03578762
000010 14 8f 89 bc 72 d6 54 bd 26 2d 04 bd d0 ff 3e 3d
       -0.016791858 -0.051962323 -0.03226962 0.04663068
000020 00 76 9a bc 16 ff 47 bd ee 37 28 bd 2e 00 71 3d
       -0.018855095 -0.048827253 -0.041068964 0.058838062
000030 90 a7 f1 bb 40 91 26 3b fc d1 64 3d c0 d1 83 bb
       -0.0073747113 0.0025416166 0.05586432 -0.004022807
000040 f8 e6 2f bc c2 e1 24 3d e8 cd b4 3c 0c 46 c9 bc
       -0.01073622 0.040254362 0.02207084 -0.024569534
000050 ce 4c 7a 3d aa d2 0f bd 4c 39 93 3c 42 ed 44 3d
       0.061108403 -0.035113014 0.017971657 0.04807783
000060 ae c0 23 3d b0 be b4 bc d0 36 54 bc e4 59 fc bc
       0.039978676 -0.022063583 -0.012952521 -0.030804582
000070 ee 94 68 3d ce 2a 34 3d 20 2a a4 3b 18 5f 62 3c
       0.056782655 0.043986134 0.0050099045 0.013816617
000080 28 5e a3 bc 7c 3c 32 3d c8 83 0d bc ee 37 29 bd
       -0.019942358 0.043514714 -0.008637376 -0.041313104
000090 f2 b8 62 bd 4a fb 15 bd 18 c1 a5 3c d8 e7 f6 bc
       -0.05535216 -0.0366166 0.020233676 -0.030139849
0000a0 ec 70 2e 3d 72 b3 3b 3d 90 ba a7 bb 20 0f 6a bc
       0.04258816 0.04582543 -0.0051186755 -0.014285833
0000b0 84 4b 73 3d 7a dd 15 bd 70 de 89 3b 08 95 44 bc
       0.05939819 -0.03658817 0.004207425 -0.011998422
0000c0 e0 b6 1f bd 24 9e ec bc 96 16 6d 3d e8 66 8f bc
       -0.038992763 -0.028884001 0.057882868 -0.017505124
0000d0 da 3f 13 3d 48 ce 1c 3d 60 c6 e7 bb 40 01 7a bd
       0.035949565 0.038282663 -0.0070732087 -0.06103635
0000e0 d0 bd d1 bb 64 f2 d2 bc d0 01 1d 3c 04 b3 65 bd
       -0.0064008012 -0.025750346 0.009582952 -0.056078926
0000f0 62 1d 4a bd c4 7a 96 bc 7a 02 18 3d 40 c4 c1 ba
       -0.049344428 -0.018369086 0.037111737 -0.0014783219
000100 10 50 9a 3b ec 6a c3 3c 7c c6 b0 3c 00 fe ed bb
       0.004709251 0.023854695 0.02157902 -0.007262945
000110 50 16 ab 3c 74 04 59 3d 18 46 dd bc 20 90 72 bd
       0.020884663 0.052982762 -0.027010962 -0.05921948
000120 d6 41 25 3d f8 e0 c5 bc 30 8e db 3c 16 d6 21 3d
       0.04034599 -0.024155125 0.026801199 0.03951081
000130 ce 7b 7c bd 64 3d b5 bc a0 8a d8 bb c0 a2 8e 3b
       -0.061641507 -0.022124 -0.0066083223 0.0043528974
000140 c0 d6 7e 3b 46 05 65 3d a0 78 34 bd 02 05 5f bd
       0.0038885325 0.055913232 -0.04406035 -0.054448135
000150 34 5e 1b bd a4 ae be 3c 40 e0 db ba 48 32 58 bd
       -0.037931636 0.023276635 -0.0016775206 -0.052782327
000160 4a f2 0a bd ec d0 b0 bc 70 f7 99 bb 20 6d 1d 3b
       -0.03392247 -0.021583997 -0.0046986863 0.0024021342
000170 a8 1f 13 3d 56 ca 69 bd 00 1b a6 3b 98 bd 45 bd
       0.03591886 -0.05707773 0.0050691366 -0.048276514
000180 46 49 1d bd 80 ba 51 bb 0c 4f 7a 3d 76 49 0e 3d
       -0.038399957 -0.0032002032 0.06111054 0.034738027
000190 a0 b9 18 3c bc b8 58 bd c2 34 4f bd e4 89 04 3d
       0.0093216 -0.05291055 -0.050587423 0.032358065
0001a0 98 b0 3c bd 78 60 3c 3c 54 3a 70 bd 80 76 a8 bb
       -0.04606685 0.011497609 -0.058649376 -0.0051410794
0001b0 e0 4c d7 3c 36 1c 6f bd d6 21 7a 3d a6 f9 4a bd
       0.026281774 -0.058376513 0.061067425 -0.04955449
0001c0 ac 51 82 3c 28 ff 6d bc e0 02 20 3d 48 10 69 3c
       0.015908085 -0.014526166 0.03906524 0.014225073
0001d0 80 50 40 bd b8 60 13 3d a0 a0 b2 3b be 97 3b 3d
       -0.04695177 0.03598091 0.005451277 0.04579901

fc2.weight f4 [84, 120]
000000 c7 71 a2 bd 2c e3 57 3d cc 76 8d 3c 4c 7c 33 3d
       -0.079318576 0.052706882 0.01726856 0.04381971
000010 f6 fb 96 3d 06 44 ab 3d 74 d6 80 3d 20 87 4b bc
       0.073722765 0.08362584 0.06290904 -0.012422353
000020 f8 be 94 bd a4 63 ad bc cf 23 9d bd fc d6 2a bd
       -0.07262987 -0.021165676 -0.076728456 -0.04170893
000030 20 c8 9e 3b c0 96 43 3c 49 29 73 bd b0 4d 97 3b
       0.004845634 0.011937797 -0.059365544 0.0046174154
000040 48 dd 24 3d 28 b0 a2 3d e0 87 df 3b 7c 0e 7d 3d
       0.040250093 0.079437554 0.0068216175 0.06178139
000050 88 cd 58 3d f0 50 11 3c a5 59 4d bd 40 db 24 3c
       0.052930385 0.008869395 -0.05013432 0.010062039
000060 e1 f3 1d bd 70 be 5b 3d d6 3e 33 bd fc 33 ba 3d
       -0.03856266 0.053648412 -0.043761097 0.090919465
000070 57 83 b2 bd 5e 0a a8 3d bc 1a d3 3c a8 25 4f 3d
       -0.08716457 0.082051024 0.025769584 0.05057302
000080 80 69 cd ba 2e f3 b8 bd 10 2e 20 bc ec a8 da 3c
       -0.00156717 -0.09030758 -0.009776607 0.026691876
000090 54 a6 3b 3d 6a 78 21 bd 98 c5 23 3d ac f6 9d bc
       0.04581292 -0.039421476 0.039983362 -0.019282661
0000a0 d4 c4 0f 3d 72 2e 3c bd 9f bd 08 bd 00 99 94 3d
       0.03509982 -0.04594273 -0.03338396 0.07255745
0000b0 25 59 27 bd f9 ed 90 bd 4c 83 4d 3d 42 0b 9d bd
       -0.0408565 -0.0707664 0.050174043 -0.07668163
0000c0 70 85 b2 bd 70 62 91 bd b6 e6 81 bd 14 38 cc bc
       -0.087168574 -0.070988536 -0.06342833 -0.024929084
0000d0 00 82 4b 3a c4 8d 62 3d 95 bf b5 bd de 29 97 3d
       0.0007763207 0.05531098 -0.08874432 0.073810324
0000e0 40 2e 8d bc 3c 39 ad 3d 64 ac 22 3d 68 f3 18 bd
       -0.017233968 0.08458182 0.039715186 -0.037341505
0000f0 28 6a 3e bc 5d d7 40 bd f2 a1 8f 3d 52 4a af 3d
       -0.011621989 -0.047080386 0.070133105 0.08559097
000100 69 15 38 bd 59 67 b9 bd 18 f7 ce 3c 22 f9 61 bd
       -0.044942293 -0.09052915 0.025264308 -0.055169232
000110 98 27 b1 bd 30 e9 b4 3d 60 b4 9d 3c 48 90 45 bc
       -0.0865013 0.088335395 0.019251049 -0.012058325
000120 38 55 b8 3c b0 ef 4f 3d 0e c9 08 bd 78 76 a0 3d
       0.022501573 0.050765693 -0.033394866 0.07835096
000130 80 2f c8 3c 90 8c 00 bd 72 35 9a bd 80 57 a1 3b
       0.024436712 -0.03138405 -0.07529725 0.004923761
000140 8c 9e 8a bd 6a 8b 95 bd 90 54 89 3d 56 e6 ac 3d
       -0.06768522 -0.07301982 0.06705582 0.084423706
000150 7a f9 89 bd fb dd 80 bd 48 56 b0 bd 48 ee 4b 3d
       -0.06737037 -0.062923394 -0.08610207 0.04978779
000160 fe 64 89 bd 4b bb 16 bd ec c0 4e 3d ca cb 82 3d
       -0.06708716 -0.03679971 0.050476953 0.06386526
000170 18 29 4e 3d ac 4b ac 3d 9a cd a4 3d 20 ef b6 3d
       0.05033216 0.08412871 0.08047028 0.08932328
000180 c8 ad 58 bc fc c4 25 3d 7d 28 4a bd a5 fa 39 bd
       -0.013225026 0.040471062 -0.04935502 -0.04540505
000190 2d 1b 4f bd 04 17 9e bd 40 41 b4 3a 78 33 9b 3d
       -0.050563026 -0.07719234 0.0013752356 0.07578176
0001a0 ea 4d 9a 3d 1c 41 b0 bd e5 08 ab bd 0c 94 03 3d
       0.07534392 -0.08606169 -0.08351306 0.03212361
0001b0 38 6f 70 3d 4c 8d b3 3d 34 52 ae bd 80 a9 6e bc
       0.058699816 0.087671846 -0.08511773 -0.014566779
0001c0 30 dd 8b bd b8 ed 20 bc 00 f8 b4 bb 80 f1 a3 3d
       -0.068292975 -0.009822302 -0.005522728 0.08005047
0001d0 60 f4 12 3b 60 b8 f5 3c f0 8f 0a 3d 92 e8 ba 3d
       0.002242349 0.029995143 0.033828676 0.091263905
0001e0 63 20 90 bd 3c 08 91 bc 7e 19 34 bd 00 91 b9 3c
       -0.07037427 -0.017704122 -0.043969624 0.02265215
0001f0 f1 94 b2 bd 60 d1 19 3c c7 6e 38 bd 80 a1 7c 3a
       -0.087198146 0.009388298 -0.04502752 0.00096371025
000200 58 bc 48 3c ac b2 90 3d 98 3c 02 bc c4 3a d7 3c
       0.012251936 0.07065329 -0.007949017 0.026273139
000210 18 f7 14 bc f1 23 a1 bd f4 94 29 3d 90 a6 41 bc
       -0.009092115 -0.078681834 0.04140182 -0.011819497
000220 00 ab 3f 3b cc a4 b0 bc 0f 10 3c bd 4a ee ab 3d
       0.002924621 -0.021562956 -0.045913752 0.083950594
000230 bc c3 82 bd 00 84 da b8 88 62 ac bc 40 bf 4d 3d
       -0.063849896 -0.00010419637 -0.021043077 0.05023122
000240 4c c2 3d 3d 30 ba 55 3c 60 11 aa bd 4f 9f b2 bd
       0.046327874 0.013044879 -0.08304095 -0.08721792
000250 9c 3a a7 bd e2 3b 8b bd 1c 92 8c 3d 6a cd a3 bd
       -0.08165476 -0.06798531 0.06863806 -0.07998164
000260 cc ff a2 bd 50 db d0 bb 5d 28 1f bd 37 58 b6 bd
       -0.07958946 -0.0063738003 -0.038856853 -0.089035444
000270 d2 29 b4 bd ac e4 48 3d 50 15 21 bd d0 1d 3e bc
       -0.08797039 0.049046203 -0.039326966 -0.011603788
000280 d0 da 7f 3d 10 e2 11 bc 50 db 52 bd 6f fe b2 bd
       0.062464535 -0.008903995 -0.051478684 -0.087399356
000290 30 63 c3 3c 1c 0e a5 bc be f6 39 bd 2e d5 82 3d
       0.023851007 -0.02014833 -0.045401327 0.06388317
0002a0 08 ae c7 3c 90 57 10 3c 38 bc 97 bd 60 23 f8 3c
       0.024374977 0.008809939 -0.07408947 0.030290306
0002b0 24 6c 5a 3d 80 12 4c ba ee 22 69 bd 8b cd ae bd
       0.053325787 -0.0007784739 -0.056918077 -0.08535298
0002c0 27 77 6c bd 0c 7e 8a bd 00 57 f2 3c bc f3 ae 3d
       -0.05773082 -0.06762323 0.0295825 0.085425824
0002d0 ea e8 92 3d 10 46 0f 3c 64 27 49 bd d4 d6 3e 3d
       0.07173331 0.008744732 -0.04910983 0.046591595
0002e0 cd d4 25 bd a4 11 27 3d ab 98 15 bd c3 d8 62 bd
       -0.040486146 0.040788308 -0.03652255 -0.0553825
0002f0 77 17 24 bd c9 72 43 bd 40 98 a5 ba 68 b3 23 bd
       -0.04006144 -0.04771689 -0.0012633875 -0.039966017
000300 50 81 85 bd a8 69 4f 3d 59 2d 88 bd 03 6c 16 bd
       -0.06518805 0.05063787 -0.066492744 -0.0367241
000310 30 56 7f bd d8 85 97 bc a0 b9 4a 3d 64 b2 6a 3d
       -0.062338054 -0.018496439 0.049493432 0.057299033
000320 ec ab 8e 3c 08 71 38 3d 9c fb ed bc 5c ab 18 bd
       0.017415963 0.04502967 -0.02905064 -0.037272796
000330 9c 78 2c bd c0 25 03 3b 84 4d 4f 3d 12 18 2e bd
       -0.04210721 0.0020011514 0.050611034 -0.042503424
000340 98 95 0b 3d c0 11 bf bc 46 3f b2 bd 48 aa ac bd
       0.03407821 -0.023323894 -0.08703475 -0.08430916
000350 60 21 49 3b 14 e9 d1 bc 64 88 b8 bd b8 7d 55 bd
       0.003069006 -0.025623836 -0.090103894 -0.052121848
000360 f7 61 ad bd 70 b6 cb bc 04 1a b5 bc 00 b3 82 3a
       -0.08465951 -0.024867266 -0.022107132 0.0009971559
000370 d8 31 2f bc 20 34 e6 3b 08 91 cb bc 88 ab 5b bd
       -0.010693036 0.0070252568 -0.02484943 -0.05363038
000380 35 83 b7 bd 40 d8 c9 3b ea 83 b6 3d 70 e2 0b 3d
       -0.08960573 0.006159812 0.08911879 0.034151495
000390 b1 57 ab bd 44 e6 95 3d a6 12 a3 3d 10 77 3d 3c
       -0.08366335 0.0731931 0.07962541 0.011564031
0003a0 d0 c3 3a 3d 44 37 00 3d b0 83 06 bc d8 e1 02 3d
       0.045596898 0.031302705 -0.008210108 0.031953663
0003b0 e4 75 10 3d 70 c9 ae bc 90 3c 5e 3d 00 d1 a7 3c
       0.03526868 -0.021336287 0.054256976 0.020485401
0003c0 8c c4 9f bc 86 e7 59 bd 04 21 8c 3c 69 3e 82 bd
       -0.0195029 -0.053199314 0.017105587 -0.0635956
0003d0 b4 9b 8d 3d 18 13 13 3d 0e 07 46 bd 7d 54 4d bd
       0.06914464 0.03590688 -0.04834657 -0.050129402
0003e0 60 f5 a6 bd 00 b1 88 3b 88 fb 59 3d 94 cd e3 3c
       -0.0815227 0.0041714907 0.053218395 0.027807988
0003f0 ac 70 89 3c 4a 62 99 3d 80 94 42 3b 20 0a 3a 3d
       0.016777359 0.0748945 0.0029690564 0.045419812

fc2.bias f4 [84]
000000 22 ec 3a bd 64 6d 9a bd 40 8b b7 ba e0 7e 2e 3d
       -0.04563535 -0.07540396 -0.0014003292 0.042601466
000010 a0 2b 64 3d e0 44 95 3c d2 52 9d bd 58 9d 11 bc
       0.055705667 0.018221319 -0.07681812 -0.008887611
000020 30 46 7f 3d 44 f8 23 3d 7c 3f 59 bd ee 5d 99 3d
       0.062322795 0.040031686 -0.05303906 0.07488619
000030 50 8d 30 3d b0 63 86 3c a0 07 a5 3d fc 5a 61 3d
       0.043103516 0.016404957 0.08058095 0.05501841
000040 cc 65 07 3d 14 56 a2 bd f8 8a fb 3c c2 b9 a0 3d
       0.033056065 -0.07926574 0.030705914 0.078479305
000050 28 a8 a2 bc 88 1d 16 3d b8 75 95 bd 30 10 65 3d
       -0.019855574 0.036649257 -0.07297844 0.05592364
000060 f2 87 82 3d de e7 33 bd 80 3d 48 3c 25 82 b8 bd
       0.06373586 -0.043922298 0.012221694 -0.09009198
000070 51 cf 6a bd 30 40 1a bc fd 2e 9b bd 49 98 40 bd
       -0.05732662 -0.009414718 -0.07577322 -0.04702023
000080 3a f8 2e bd 84 c0 81 3d 54 4d 23 3d 8a 36 89 3d
       -0.042717196 0.063355476 0.039868668 0.066998556
000090 a0 d7 32 3b 52 21 09 3d 18 a9 30 3d 88 82 16 bc
       0.0027289167 0.033479042 0.04313001 -0.0091863945
0000a0 48 9a 05 3d 98 63 b2 3c 56 a8 b9 3d c6 7c 84 3d
       0.032617837 0.021776006 0.09065311 0.06469111
0000b0 c9 2d 2b bd 6e 54 a2 3d 84 d2 38 3d b4 97 cb bc
       -0.04179171 0.0792626 0.04512264 -0.024852611
0000c0 b8 14 52 3d 0c 76 cf bc 6a c7 89 3d 14 d5 a5 bd
       0.05128929 -0.025324844 0.06727488 -0.08097282
0000d0 90 70 05 3d 2c 8c a5 3d 90 74 b9 bc da c0 a8 bd
       0.03257805 0.08083376 -0.02263859 -0.082399085
0000e0 be 80 f0 bc 9e ad b8 3d 24 f5 88 bd de 28 83 3d
       -0.029358264 0.0901749 -0.06687382 0.06404279
0000f0 b7 78 9d bd 7c 78 36 3d ac a4 7c 3d e4 eb 86 3d
       -0.0768904 0.044548497 0.06168048 0.06587961
000100 f8 b6 60 3d 54 c2 8a 3d 4e 01 82 3d 26 5b 9c 3d
       0.054861993 0.067753464 0.06347905 0.07634573
000110 bd a4 4c bd 64 3f 99 bd 78 21 23 3d f0 8e 73 3d
       -0.049961794 -0.07482794 0.03982684 0.059462488
000120 60 37 a4 3b 00 79 a6 3d f0 f4 53 3d 20 4a aa 3c
       0.005011484 0.08128548 0.051747262 0.020787299
000130 2e 69 9b bd 94 c8 99 3d 3b 0b 11 bd 70 8c b9 3d
       -0.07588421 0.0750896 -0.0354111 0.090599895
000140 14 0a 12 3d 0c a5 6e 3d b8 fa 4c bd 30 aa 56 3c
       0.035654142 0.05826287 -0.05004379 0.013102099

fc3.weight f4 [10, 84]
000000 80 33 57 bb 5c ce e7 bc a5 84 af 3d fc 99 8c bc
       -0.0032837093 -0.028296642 0.08570222 -0.01716327
000010 24 89 cd bd 54 82 b0 3c 76 bc dd bd 26 29 55 bd
       -0.10035923 0.02154652 -0.10826962 -0.052041195
000020 24 79 18 bd 27 09 d3 3d 80 73 31 3a 08 30 b7 bc
       -0.037224904 0.1030448 0.0006769225 -0.02236177
000030 06 7d 5d 3d 52 26 3a 3d dc e2 a7 3c c2 05 8f bd
       0.05407431 0.0454467 0.020493917 -0.0698352
000040 04 ee 23 bd 30 cf cd 3b 92 94 3a 3d 14 76 94 3c
       -0.04002191 0.006280802 0.045551844 0.01812271
000050 d4 94 3e bd 60 61 0e bc 72 6b 33 bd 24 a1 9f bc
       -0.046528652 -0.008690208 -0.04380364 -0.019486018
000060 72 4d 29 bd ac 82 8c bd c2 1e 25 bd ac 5b a6 bd
       -0.041333623 -0.06860861 -0.040312536 -0.08122954
000070 44 e1 e7 bc 65 2f ac 3d 8a 40 b6 bd b0 f5 0f bd
       -0.028305657 0.08407477 -0.088990286 -0.035146415
000080 5b 09 db 3d ce a0 2e 3d aa 2f be bd 7c 0b 0b bd
       0.10695144 0.042633824 -0.09286435 -0.0339465
000090 4f 09 d1 3d 96 98 8f bd 7e 66 87 bd c3 75 83 bd
       0.102068536 -0.07011525 -0.06611346 -0.06418946
0000a0 e8 c4 f4 bc 97 91 97 3d 0b 35 77 bd d6 c3 04 bd
       -0.029879048 0.07400816 -0.06035332 -0.032413326
0000b0 d9 92 b5 3d 40 38 20 bd f7 c1 c1 3d 50 7f 94 bb
       0.088658996 -0.039116144 0.09460824 -0.0045317784
0000c0 fc af fb 3c fc 64 01 bd 66 7e b2 bd 45 6c ca 3d
       0.030723564 -0.031590447 -0.08715515 0.09883932
0000d0 38 6b 61 bc f9 48 db 3d 08 c9 08 bd 93 9e a4 3d
       -0.013758473 0.10707278 -0.033394843 0.08038058
0000e0 b8 81 36 bc fa b5 52 3d 66 fb 68 3d f0 7c 40 bc
       -0.011139326 0.051443078 0.056880377 -0.011748537
0000f0 f6 2e 41 3d 58 2f 3a bd b8 e9 82 bc 84 08 84 3c
       0.047163926 -0.045455307 -0.015980586 0.016117342
000100 65 f4 d7 3d b5 5b 98 bd 92 cf 05 bd 66 9f 59 bd
       0.105446614 -0.07439367 -0.032668658 -0.05313053
000110 4e 1b 50 3d dc 2e c0 bd 00 fd a4 39 d5 e8 c3 3d
       0.05080729 -0.09383938 0.00031469017 0.095658936
000120 aa 71 44 bd 55 86 b0 3d 4c 92 e9 bc f0 a2 bd bb
       -0.04795996 0.08619372 -0.028512143 -0.005787246
000130 02 ce db bd a8 aa ad bd bc f1 a4 bd 10 7d 0d bd
       -0.10732652 -0.08479816 -0.0805392 -0.034543097
000140 22 65 38 3d 6f 22 86 bd 36 44 4d 3d 5c 95 b3 3c
       0.045018323 -0.065495364 0.05011388 0.021921806
000150 3a 4d 2a 3d 1d 6d da bd 98 1f 67 3c e8 8b 1c bd
       0.041577555 -0.10665343 0.014106654 -0.038219362
000160 a2 d6 78 bd 9b dd 95 3d fa 3b 2c 3d 05 bc 96 3d
       -0.060751565 0.073176585 0.042049386 0.07360081
000170 b1 38 6d bd 03 78 8f 3d ac eb d4 3c 72 90 66 3d
       -0.057915393 0.07005312 0.025991283 0.056290098
000180 40 6f 23 3c 48 d8 9e bc 2d 1d 9b 3d 50 ed ac bb
       0.009975255 -0.01939024 0.07573924 -0.0052773133
000190 08 4e 8f bd ae 45 0b bd 9b 27 91 3d c6 80 84 bd
       -0.06997305 -0.034002 0.07087632 -0.06469874
0001a0 d8 73 9e bd 37 09 95 3d a1 d9 a8 bd 00 e2 d0 b9
       -0.07736939 0.07277148 -0.082446344 -0.00039841235
0001b0 47 40 9e 3d 7a 2a b5 bd 40 80 2b 3c 63 43 a6 bd
       0.07727104 -0.088459924 0.010467589 -0.08118322
0001c0 a0 b8 51 bd a2 5b 53 3d ce 08 07 3d 7b b5 8a bd
       -0.051201463 0.05160106 0.03296738 -0.06772896
0001d0 68 21 5c bd 18 bb 0f 3c f6 3d 20 bd f0 bf 73 bc
       -0.053742796 0.008772634 -0.03912159 -0.014877304
0001e0 54 14 60 bd dc 02 00 bd e1 94 9d bd 1f 7d b2 3d
       -0.054706886 -0.031252727 -0.07694412 0.08715271
0001f0 fa 74 26 3d f9 eb 97 bd 70 2b 25 bc 62 b3 93 bd
       0.0406389 -0.07418055 -0.010081157 -0.07211949
000200 8f 3f 6e bd 25 8b d5 3d 3f d5 69 bd bd cf 83 3d
       -0.058166083 0.1042693 -0.057088133 0.06436107
000210 26 40 3d bd d7 76 89 bd f9 fe bd 3d 5e 81 46 3d
       -0.046203755 -0.0671212 0.09277148 0.048463218
000220 d6 99 17 bd c0 9a ef bb ff 7f 9b bd 3c 92 d0 bc
       -0.037011944 -0.007312149 -0.07592773 -0.025460355
000230 b8 3a dd bd 6f 31 bf 3d c0 37 b0 bb 0a 9f da bd
       -0.10802215 0.093356006 -0.0053777397 -0.106748655
000240 bc 55 f5 3c 5d dc b6 3d 84 e5 9a bc 24 3b 86 3c
       0.029948108 0.0892875 -0.01890827 0.016385622
000250 86 8a 38 3d 33 13 a3 3d 98 52 11 bc 4d d0 b2 3d
       0.04505398 0.07962646 -0.00886979 0.087311365
000260 b4 4e c1 3c ec 5a 65 bd 0c 55 d4 3c 48 7f d4 bd
       0.023597099 -0.055994913 0.02591946 -0.103758395
000270 7f 0c a9 3d e0 94 01 3b 82 e1 3d bd 14 18 f1 3c
       0.082543366 0.0019772574 -0.04635764 0.029430427
000280 20 63 fb bc 88 d1 d4 bc 32 9d 41 bd 60 fd 25 bb
       -0.030686915 -0.025978819 -0.047269054 -0.0025328025
000290 b1 13 6c bd 4c a8 b3 3c 9d 28 b0 3d 68 ed 04 bd
       -0.057635967 0.021930836 0.08601496 -0.03245297
0002a0 e6 6c 76 3d e4 b5 92 bd f0 40 d6 bb c0 61 bc bc
       0.060162447 -0.07163599 -0.006538503 -0.02299583
0002b0 d0 e4 e5 bb 2e 00 99 bd 30 f0 ad bd d0 7e 66 bd
       -0.007015802 -0.074707374 -0.08493078 -0.05627328
0002c0 96 36 4a 3d 2b 86 ce 3d 8e 67 8b bd 9e 3a c2 bd
       0.049368463 0.10084184 -0.06806861 -0.094838366
0002d0 50 54 ee 3b d6 02 0b 3d 2f 7f c5 bd 12 0a 76 3d
       0.0072732344 0.03393825 -0.09643399 0.060068198
0002e0 95 ab 8b 3d 89 34 bf 3d 24 b9 cb bd da 31 0d 3d
       0.06819836 0.09336192 -0.09947422 0.03447137
0002f0 a9 fb ba 3d a6 a4 8e bd f6 c3 60 3d c6 b6 86 bd
       0.091300316 -0.06964998 0.054874383 -0.0657783
000300 6e a6 0c bd 72 03 28 3d bb 3e 7a bd 4b 03 c9 bd
       -0.034338407 0.04101891 -0.06109498 -0.09815081
000310 6a 9a 58 3d 76 54 77 3d 0d 16 99 3d f4 19 14 bd
       0.052881636 0.060383283 0.07474909 -0.036157563
000320 17 87 9d 3d d1 16 85 bd 40 88 46 3b c5 54 8f 3d
       0.07691782 -0.064984925 0.0030293614 0.069985904
000330 87 1a bd bd e9 19 94 3d 32 9a 62 3d 64 73 9b bc
       -0.09233575 0.072315045 0.055322833 -0.018975921
000340 9d d1 d6 3d 70 fe ff bb 5c 91 a3 bd da 01 0c 3d
       0.10489199 -0.0078123137 -0.079867095 0.034181453
000350 74 83 b5 3c 07 18 bc 3d 01 3e 92 3d e9 c1 ce 3d
       0.022157408 0.0918427 0.071407326 0.10095579
000360 3a 07 a0 bd a0 5f 76 3c 07 8b b2 3d 1a e1 08 3d
       -0.07813878 0.015037447 0.087179236 0.0334178
000370 d8 91 11 bd e0 9d ca bb 96 36 4c 3d 17 fb 9f 3d
       -0.035539478 -0.006183371 0.049856745 0.078115635
000380 88 39 0f 3c da fb 1d 3d aa f7 3e 3d f2 de 11 3d
       0.008741744 0.038570262 0.04662291 0.035613008
000390 40 3a 17 3b cc bc 1d bd 2e 31 31 3d a4 08 35 bd
       0.0023075491 -0.03851013 0.043259792 -0.044197693
0003a0 9a 56 06 3d 80 39 c5 bb bc c4 70 bd 6f b0 b0 3d
       0.032797433 -0.0060188174 -0.05878137 0.08627402
0003b0 72 0b 70 3d bc 9e fa 3c dc fe 8f 3c 0d d0 d1 3d
       0.058604665 0.030593269 0.017577581 0.10244761
0003c0 2e 4e 73 bd 10 da ae 3b 4c 0a bc 3c 5d e8 be 3d
       -0.05940073 0.0053360537 0.022954129 0.093216635
0003d0 a8 1d b3 bc a4 20 fb 3c db 65 d8 3d 24 4f 84 3c
       -0.021864727 0.030655213 0.105663024 0.016151018
0003e0 f6 a9 9c bd 9c dc 98 bc 60 88 20 3b 04 5c a8 3c
       -0.07649605 -0.018659882 0.0024495348 0.020551689
0003f0 ef 96 a6 3d 24 57 a2 bc a0 b2 f1 bc 9a c1 54 3d
       0.08134257 -0.019816943 -0.02950412 0.051942445

fc3.bias f4 [10]
000000 79 58 93 3d 5c f5 dc bd b3 ba d0 3d 82 64 03 3d
       0.07194609 -0.10788986 0.1019186 0.032078274
000010 54 c8 8e 3c bb 97 8c 3d 8c 62 dd 3c 00 d8 15 ba
       0.017429508 0.06864878 0.02702453 -0.00057160854
000020 ee 94 66 3d 54 1a a2 bd
       0.056294374 -0.07915178
